model/eeg_cnn.pth (torch, 161605 bytes, 24 tensors)

bn1.weight f4 [14]
0	0x3fe9fb94	1.82799
1	0x3fed6d14	1.8548913
2	0x3fe45a79	1.784011
3	0x3fc68686	1.5509803
4	0x3f592b04	0.8483126
5	0x3f9c0938	1.2190313
6	0x3fdd1dee	1.7274759
7	0x3fd20906	1.6409004
8	0x3f8cee4b	1.1010221
9	0x3f647f4b	0.89256734
10	0x3fc7f2ab	1.5620931
11	0x3f362613	0.71151847
12	0x3fcad404	1.5845952
13	0x3ff659fa	1.9246209

bn1.bias f4 [14]
0	0xbe4bd472	-0.1990526
1	0xbe3bd3ca	-0.1834251
2	0xbe3ec62b	-0.18630283
3	0xbd12213d	-0.03567623
4	0x3db94833	0.09046974
5	0xbd1a2c4b	-0.037639897
6	0xbe10116d	-0.14069147
7	0xbdc98ded	-0.09841523
8	0x3c151ad3	0.009100634
9	0xbc80d57d	-0.0157268
10	0xbdb9b6dd	-0.090680815
11	0x3e51860f	0.20461296
12	0xbd4e71f1	-0.05040163
13	0xbe2d4738	-0.16921699

bn1.running_mean f4 [14]
0	0x4583f7eb	4222.9897
1	0x4583caa4	4217.33
2	0x4583f8e8	4223.1133
3	0x458418b3	4227.0874
4	0x458429df	4229.234
5	0x4584214f	4228.1636
6	0x4583fd7f	4223.687
7	0x4583f930	4223.1484
8	0x4583cd87	4217.691
9	0x45844611	4232.7583
10	0x45842839	4229.028
11	0x45840456	4224.542
12	0x45840053	4224.0405
13	0x45840a26	4225.2686

bn1.running_var f4 [14]
0	0x4626c3d2	10672.955
1	0x46547de7	13599.476
2	0x469ae8ea	19828.457
3	0x467c2429	16137.04
4	0x42a2879c	81.26486
5	0x4423936d	654.3035
6	0x46b934ad	23706.338
7	0x46b47c77	23102.232
8	0x471f79b9	40825.723
9	0x421b55c3	38.83375
10	0x45d766a1	6892.8286
11	0x47359929	46489.16
12	0x46759984	15718.379
13	0x462f44b7	11217.179

conv1.weight f4 [32, 1, 1, 4]
0	0x3dccbffc	0.099975556
1	0xbdd765f2	-0.105174914
2	0xbf23065e	-0.6368159
3	0x3ee5715b	0.44813046
4	0xbc781f6b	-0.015144209
5	0xbf2510af	-0.6447858
6	0xbdf88e01	-0.1213646
7	0x3f890981	1.0706025
8	0x3f119a81	0.5687638
9	0xbe5c7ea5	-0.21532686
10	0xbf1418c5	-0.57850295
11	0xbe13a977	-0.14420114
12	0xbddb7ed6	-0.107175514
13	0x3ee02176	0.4377553
14	0xbd870f9d	-0.06594775
15	0x3ea90193	0.33009014
16	0x3d705ffc	0.058685288
17	0x3ef533d7	0.47891113
18	0xbdd967cb	-0.106155
19	0xbf225aa1	-0.6341954
20	0xbe6e52ed	-0.23273821
21	0x3f233c25	0.6376365
22	0x3e7c627f	0.24646948
23	0xbe002248	-0.12513077
24	0x3e8570b9	0.26062563
25	0x3f0f04ff	0.55867
26	0x3e3ef7ba	0.18649188
27	0xbf234bd3	-0.63787574
28	0x3e1a61f7	0.15076433
29	0x3f34e291	0.7065821
30	0xbf29855d	-0.6621912
31	0xbe3fb29d	-0.1872048
32	0xbe13fd20	-0.14452028
33	0xbe23db01	-0.16001512
34	0x3f4819ef	0.7816457
35	0xbe771ca8	-0.24132025
36	0x3f43edc9	0.76534706
37	0x3e80d99b	0.2516602
38	0xbe8a2474	-0.26980937
39	0xbf424721	-0.75889784
40	0x3f2cabc3	0.6744959
41	0xbed8a55f	-0.42313668
42	0x3e812217	0.2522132
43	0xbd3014ad	-0.042988468
44	0xbe57efa9	-0.21087517
45	0x3e215503	0.15755086
46	0x3ed86d15	0.42270723
47	0x3e4367c7	0.19082557
48	0xbf39d591	-0.725915
49	0x3f15976c	0.58434176
50	0xbebd0a1a	-0.3692177
51	0x3ea8c61c	0.32963645
52	0x3f075864	0.5286925
53	0x3d25713f	0.040391203
54	0xbefa84a2	-0.48929316
55	0xbf0eb9ab	-0.55752057
56	0x3ecee280	0.4040718
57	0x3a9e9d64	0.001210135
58	0xbf5d7b00	-0.8651581
59	0x3f2d1853	0.6761524
60	0xbf075499	-0.5286346
61	0xbe6a5606	-0.22884378
62	0xbe52309e	-0.20526358
63	0x3f5fb037	0.8737826
64	0xbbc7c6a6	-0.006096679
65	0x3f2d7bb7	0.677669
66	0xbef14a55	-0.47127023
67	0x3e48fe8e	0.19628355
68	0xbedf3ce0	-0.4360113
69	0x3e81b67e	0.25334543
70	0x3f1f6806	0.622681
71	0x3e538492	0.2065604
72	0x3ecb0057	0.39648697
73	0xbf6ddd0d	-0.9291542
74	0xbee720d8	-0.45142245
75	0x3f5c9619	0.8616653
76	0x3f23fd32	0.6405822
77	0xbe26f86f	-0.16305707
78	0x3e7df2f8	0.24799716
79	0x3e2b8979	0.1675166
80	0xbf187a05	-0.5956119
81	0xbe51abab	-0.20475642
82	0x3f08b823	0.5340597
83	0x3f2caa6b	0.6744754
84	0x3f0c993d	0.54921323
85	0xbf58e163	-0.8471891
86	0xbd88e322	-0.06683947
87	0x3e5ed4c6	0.21760854
88	0xbf3a0e05	-0.7267764
89	0xbacca700	-0.0015613735
90	0x3f3fb8f0	0.7489157
91	0xbce75122	-0.02823693
92	0xbedf267e	-0.43584055
93	0x3d2bdc40	0.041958094
94	0xbec7b537	-0.39005443
95	0x3b29536c	0.0025837077
96	0x3edef2ae	0.43544525
97	0x3eb0be02	0.34519964
98	0xbeb12d5a	-0.34604913
99	0xbe81bbd7	-0.25338623
100	0xbeff080f	-0.49810836
101	0xbf0410d3	-0.5158817
102	0x3e5fae89	0.21843924
103	0x3eef856a	0.46781474
104	0xbf2ce7c6	-0.6754116
105	0x3f48a5dc	0.7837808
106	0xbed3755c	-0.41300476
107	0xbcb806ae	-0.022464123
108	0xbee9d8c5	-0.45673195
109	0x3f617fc9	0.8808561
110	0xbf137cbd	-0.5761221
111	0xbda2861b	-0.07935735
112	0xbe939fc7	-0.28832838
113	0xbc29008c	-0.010315072
114	0xbe1069ba	-0.14102831
115	0xbdb8ac28	-0.09017211
116	0xbf527411	-0.82208353
117	0x3f40580d	0.75134355
118	0x3f09b71b	0.5379502
119	0xbe81b462	-0.25332934
120	0x3ed98ddc	0.42491043
121	0xbf574b59	-0.84099346
122	0x3f38b7eb	0.72155637
123	0xbee9688f	-0.45587584
124	0xbea3fb85	-0.32027832
125	0x3ddc56a5	0.10758714
126	0x3f157e6c	0.5839603
127	0xbf34c1b4	-0.7060807

conv1.bias f4 [32]
0	0x3d9aebbb	0.07564493
1	0x3d1c15fa	0.038106896
2	0x3dc06389	0.09393985
3	0xbdaf7492	-0.08567156
4	0x3decf9fb	0.115711175
5	0xbe213259	-0.15741862
6	0xbf059f98	-0.52196646
7	0x3d8bb6f2	0.068220034
8	0x3d88ac07	0.066734366
9	0x3a04e279	0.00050691474
10	0x3d1030bf	0.035202738
11	0xbb1742e0	-0.0023080632
12	0x3dc49cd8	0.09600228
13	0xbe767ef2	-0.24071863
14	0x3d6ad21b	0.05732928
15	0xbe9e8190	-0.30958223
16	0x3d6aaaed	0.057291914
17	0xbf082b67	-0.53191227
18	0xbd04ccb0	-0.032421768
19	0xbefcbb13	-0.49361476
20	0xbdd428b8	-0.10359329
21	0x3da75bb1	0.081717856
22	0x3d9685a7	0.07349711
23	0xbf102a86	-0.56314886
24	0x3da976f6	0.08274643
25	0x3dfa72c6	0.122289225
26	0xbeda4f3e	-0.42638582
27	0x3d100536	0.03516122
28	0x3dc4d6fd	0.09611318
29	0x3be03519	0.0068422672
30	0x3dbc73b8	0.09201759
31	0x3dc638c2	0.096787944

conv2.weight f4 [25, 32, 14, 1]
0	0x3c6a2070	0.01428996
1	0x3c7c52db	0.015400614
2	0xbd4674a9	-0.0484511
3	0xbd034f8e	-0.03205829
4	0xbe0518e1	-0.12997772
5	0x3afc303b	0.0019240448
6	0xbc89783b	-0.016780963
7	0x3c130b47	0.008974857
8	0x3cf06b57	0.029348059
9	0xbca90596	-0.020632546
10	0xbdb0c440	-0.08631182
11	0xbd207f59	-0.03918395
12	0x3c54e9ab	0.012995164
13	0xbda6c560	-0.08143115
14	0xbe113291	-0.14179446
15	0x3e096cf8	0.13420475
16	0x3d76ab17	0.060221758
17	0xbd09ff40	-0.03369069
18	0xbdad6fb3	-0.084685706
19	0xbd8340b4	-0.064088255
20	0x3ca0fbd3	0.01965133
21	0x3e2a20f1	0.16614129
22	0x3d159cde	0.036526553
23	0xbe72e638	-0.23720634
24	0xbd0e06ac	-0.03467433
25	0x3d1c2c32	0.038128085
26	0xbd64be5f	-0.055845615
27	0xbdb8d028	-0.09024078
28	0x3d7bcd3b	0.06147502
29	0x3dde15cd	0.10844002
30	0xbd98cdec	-0.074611515
31	0xbc7d33c3	-0.0154542355
32	0x3d8cde93	0.0687839
33	0xbe55a1ec	-0.2086255
34	0xbd1ff985	-0.03905632
35	0xbd34589f	-0.04402983
36	0xbcd8441c	-0.026399665
37	0x3d4f4f29	0.050612602
38	0xbd67122a	-0.056413807
39	0xbd63bf37	-0.05560228
40	0x3cecdbae	0.028913345
41	0x3d2398ca	0.039940633
42	0xbe04a6dd	-0.12954278
43	0xbcd1751b	-0.025568536
44	0xbd126595	-0.035741407
45	0x3dd72dd5	0.10506789
46	0xbd0034a2	-0.031300195
47	0x3d8a8773	0.06764116
48	0x3c47c8f3	0.012193906
49	0xbd114b95	-0.03547247
50	0xbe255fac	-0.16149777
51	0x3caa74a7	0.020807577
52	0xbc88aaa2	-0.016682927
53	0xbc60c6f8	-0.013719313
54	0xbdc884ca	-0.097909525
55	0xbc74628c	-0.0149160735
56	0x3d888a0b	0.066669546
57	0xbe6a0e44	-0.22857004
58	0xbc77e60c	-0.015130531
59	0x3b9144d3	0.0044332533
60	0x3c2f4bac	0.010699194
61	0xbd77a045	-0.06045558
62	0xbe006037	-0.12536703
63	0xbda10369	-0.078619786
64	0xbc838a76	-0.016057234
65	0x3df1d225	0.1180766
66	0xbde06163	-0.10956075
67	0xbd93c5da	-0.072154716
68	0xbb99ac0b	-0.0046896986
69	0xbd12c4d2	-0.035832234
70	0x3cea2be7	0.028585387
71	0xbd4e1296	-0.050310694
72	0xbc5c2a6e	-0.01343785
73	0xbb2b4e5c	-0.0026139235
74	0xbc88129b	-0.016610434
75	0xbb43142b	-0.002976666
76	0xbaec30ef	-0.0018019954
77	0xbd6cdb56	-0.057826363
78	0x3d0b644a	0.03403119
79	0x3d750bec	0.059825823
80	0x3b64b598	0.0034898277
81	0x3d1e70e0	0.038681865
82	0xbda5ec39	-0.081016965
83	0x3c2569fc	0.010096069
84	0x3cedb6fe	0.029017922
85	0xbd477443	-0.04869486
86	0x3cbcc557	0.023043318
87	0xbd27c3f6	-0.040958367
88	0x3bb07e70	0.0053861663
89	0x3d38c03a	0.045105197
90	0x3d98d6c3	0.074628375
91	0xbcfebae0	-0.031094968
92	0xbd5b64a9	-0.053562794
93	0xbd21321d	-0.039354432
94	0x3d042715	0.032263834
95	0xbcdf75c6	-0.027277838
96	0xbd3161d8	-0.0433062
97	0xbdae562e	-0.08512531
98	0xbc9df8cb	-0.019283673
99	0xbe2c504b	-0.16827504
100	0xbdb74b16	-0.089498684
101	0x3cc72aff	0.024312494
102	0xbcee84fe	-0.02911615
103	0x3de2f605	0.11082081
104	0xbd66af08	-0.056319267
105	0x3d60bec4	0.05486943
106	0xbcdb18a8	-0.026745155
107	0x3d984562	0.07435109
108	0x3be7a75b	0.007069511
109	0xbdb0733d	-0.0861573
110	0x3c04bff4	0.008102406
111	0x3ca1871f	0.019717751
112	0xbdaa059d	-0.08301852
113	0x3c165f51	0.009177999
114	0x3da9aaa6	0.08284502
115	0x3dad4868	0.08461076
116	0xbd023830	-0.031791866
117	0x3dc1b97e	0.09459208
118	0x3a197692	0.0005854155
119	0xbd8927c2	-0.06697036
120	0x3ded05dd	0.11573384
121	0xbd20295e	-0.03910195
122	0xbc4f2e8d	-0.012645376
123	0x3d304921	0.04303849
124	0xbdb75bec	-0.089530796
125	0x3c72e69b	0.014825488
126	0xbe68daf6	-0.22739777
127	0xbdd5da7e	-0.10442065
128	0x3a17b75a	0.00057875144
129	0x3d6de8b2	0.058083244
130	0xbd91da05	-0.07121662
131	0xbd5329b0	-0.05155343
132	0xbc991438	-0.018686399
133	0x3ac50c59	0.0015033587
134	0xbdc48954	-0.09596506
135	0xbd08d1fe	-0.03340339
136	0xbd9105c9	-0.070811816
137	0xbdbe7961	-0.09300495
138	0xbe102e07	-0.14080058
139	0x3b6bd4ce	0.0035984996
140	0xbe0adecb	-0.13561551
141	0x3d394883	0.04523517
142	0x3bbfda83	0.005854906
143	0xbc953184	-0.018212087
144	0xbd76de0b	-0.06027035
145	0x3cd7b1d4	0.026329912
146	0xbd1a5bfe	-0.037685387
147	0x3c7948e0	0.015215129
148	0x3ca7f14b	0.0205008
149	0xbe468665	-0.19387205
150	0x3d528db8	0.051404685
151	0xbcd5f803	-0.026119238
152	0xbdf425e0	-0.119212866
153	0xbd3a05fb	-0.04541586
154	0xbe2fd595	-0.17171319
155	0x3dae3b6d	0.08507428
156	0xba5ddd25	-0.0008463434
157	0x3d39441f	0.04523098
158	0xbdbe52f3	-0.09293165
159	0x3e1dd0dc	0.15411705
160	0x3e079029	0.13238586
161	0x3d7a518a	0.061112918
162	0xbcb17cdf	-0.021665988
163	0x3e164f61	0.14678718
164	0xbdab4b49	-0.08363969
165	0xbd6fcbbc	-0.058543906
166	0xbda56629	-0.08076126
167	0x3ce44325	0.027864048
168	0x3cf8205e	0.030288871
169	0xbe25509d	-0.16144033
170	0xbd82992c	-0.063768715
171	0xbcbf5a4d	-0.023358488
172	0xbe30c1b0	-0.17261386
173	0xbe14bd08	-0.14525235
174	0x3e167f19	0.14696921
175	0x39e7ee55	0.00044237325
176	0x3d86311e	0.06552337
177	0x3df869bf	0.121295445
178	0xbc9e8ad0	-0.0193533
179	0xbd0fe5d8	-0.035131305
180	0x3ddad2e5	0.10684756
181	0xbe4d7447	-0.20063888
182	0xbd66a435	-0.056308944
183	0x3cf5be9a	0.029998112
184	0xbc3babf2	-0.011454569
185	0xbc7aa210	-0.015297428
186	0xb8ec1875	-0.000112579124
187	0xbd69a146	-0.057038568
188	0x3d1cc2f7	0.03827187
189	0x3d1dee05	0.03855707
190	0x3d8fb60b	0.07017144
191	0x3dc06ede	0.09396146
192	0xbdd1d42e	-0.10245548
193	0xbdd8ef1b	-0.10592481
194	0xbd2daabf	-0.042399164
195	0xb84323c3	-4.652493e-05
196	0x3cce42c8	0.025178328
197	0x3cb51324	0.022103854
198	0xbd6589e6	-0.056039713
199	0xbdaaaf08	-0.08334166
200	0xbdce0cab	-0.1006101
201	0x3da3e4df	0.08002638
202	0xba550197	-0.0008125542
203	0x3e04565b	0.12923567
204	0xbd04f9f9	-0.032464955
205	0xbd99de74	-0.07513133
206	0x3d210c2d	0.039318252
207	0xbc87a184	-0.016556509
208	0x3dd493a4	0.10379723
209	0x3de6779b	0.11253282
210	0xbc42b77d	-0.011884567
211	0xbd6113e3	-0.054950606
212	0xbc3452dc	-0.011006083
213	0xbd96f23a	-0.0737042
214	0x3ca88040	0.020568967
215	0x3c4f3702	0.012647392
216	0xbd6b8efa	-0.0575094
217	0xbd609006	-0.05482485
218	0x3e09edc3	0.13469605
219	0xbc3d8a4a	-0.011568615
220	0x3d9036fe	0.07041739
221	0xbd1d5043	-0.03840662
222	0xbbf1eff4	-0.007383341
223	0xbc936cec	-0.017996274
224	0xbe70106e	-0.23443767
225	0xbd61c811	-0.05512244
226	0xbe0167b2	-0.12637213
227	0xbd2096f0	-0.039206445
228	0xbd76cc1c	-0.060253248
229	0xbbd7f7a3	-0.0065908
230	0x3e0099f2	0.12558725
231	0x3dc07425	0.09397153
232	0xbd849bc1	-0.0647502
233	0xbd93f03c	-0.072235554
234	0xbd8e3ce7	-0.0694521
235	0xbd71b6d9	-0.059012268
236	0xbc74663e	-0.014916955
237	0x3e13d316	0.14435992
238	0xbcfa71d2	-0.030571852
239	0xbd23a578	-0.039952725
240	0xb94ac0c1	-0.00019336028
241	0xbd03d2d8	-0.0321835
242	0x3d1fc9c4	0.039010778
243	0xbd48beb4	-0.049009994
244	0xbd4d83d6	-0.050174557
245	0xbd0e694f	-0.0347684
246	0xbc9b1922	-0.018932883
247	0xbdcf631f	-0.10126328
248	0xbc81209a	-0.015762616
249	0x3cacb3d9	0.021081852
250	0xbd6ae14a	-0.05734376
251	0xbcc6f8da	-0.024288584
252	0xbd1d52e4	-0.03840913
253	0x3db405e0	0.08790183
254	0x3be43f0c	0.0069655236
255	0xbc53a79a	-0.012918377

conv2.bias f4 [25]
0	0x3d5b1ea0	0.053496003
1	0x3e32a241	0.17444707
2	0x3d8e2d4d	0.06942234
3	0x3e94424c	0.2895683
4	0x3e0aad76	0.13542733
5	0x3daf88a1	0.08570982
6	0x3da97004	0.082733184
7	0x3e19b9b3	0.15012245
8	0x3c032a37	0.00800567
9	0x3e275a81	0.16343118
10	0x3d456036	0.048187457
11	0xbd8c0054	-0.06836
12	0xbd5172a2	-0.051134713
13	0x3e49a685	0.19692428
14	0x3e7d566d	0.2474
15	0xbc48de9a	-0.012260104
16	0x3e3d42a5	0.18482454
17	0x3d20dd5f	0.039273616
18	0x3daa0557	0.083018
19	0xbe42990b	-0.19003694
20	0x3df7b11c	0.12094328
21	0xbe035dd6	-0.12828764
22	0x3e60389c	0.21896595
23	0x3e222214	0.15833312
24	0x3e612fc5	0.21990879

conv3.weight f4 [50, 1, 4, 25]
0	0xbcaf74a9	-0.021417933
1	0xbde9ba8f	-0.11412536
2	0xbdd9f7cd	-0.106429674
3	0x3e036b05	0.12833793
4	0x3e311127	0.172917
5	0x3cf8f01a	0.030387927
6	0xbdad103b	-0.08450361
7	0x3db7b023	0.08969142
8	0xbde8ad5c	-0.11361191
9	0xbd00efaf	-0.03147858
10	0x3db69503	0.089151405
11	0xbd50735d	-0.05089127
12	0x3da269cd	0.07930336
13	0x3d86d6d2	0.065839425
14	0xbdcf4265	-0.101200856
15	0xbdd4189f	-0.103562586
16	0xbd8069d4	-0.06270185
17	0x3d8127e2	0.06306435
18	0xbc5af52d	-0.0133641185
19	0x3d288da0	0.04115069
20	0x3d044b0f	0.032298144
21	0x3dc50662	0.09620358
22	0x3c2942c3	0.010330859
23	0x3e889ae6	0.26680678
24	0xbd015136	-0.03157159
25	0x3d2fb422	0.042896397
26	0xbc813796	-0.015773576
27	0xbde02842	-0.109451786
28	0x3dab717b	0.08371254
29	0xbbaa15e5	-0.0051905983
30	0xbd823581	-0.06357861
31	0xbdae7c38	-0.085197866
32	0xbcec1262	-0.02881736
33	0xbd48efd0	-0.049056828
34	0x3d2707cf	0.04077893
35	0x3ded565e	0.11588739
36	0xbde830a7	-0.11337405
37	0x3dffb3f6	0.12485497
38	0xbcab4c45	-0.020910392
39	0xbe8d52ab	-0.27602133
40	0xbd636a9f	-0.055521604
41	0xbe098422	-0.13429311
42	0xbdd44f94	-0.10366741
43	0x3dfdc22c	0.12390551
44	0x3bcd3856	0.0062628193
45	0x3e4ce651	0.20009734
46	0xbe64f404	-0.2235871
47	0xbd9f0409	-0.077644415
48	0x3df9bc6e	0.12194143
49	0xbd2b9aa7	-0.041895535
50	0xbd391f11	-0.045195643
51	0x3d6600e5	0.056153197
52	0xbd716299	-0.05893192
53	0x3dad4d16	0.084619686
54	0xbcd1d8ad	-0.025616014
55	0xbe47e716	-0.19521746
56	0xbdcf3254	-0.10117021
57	0x3e20a3d3	0.15687494
58	0xbe02e8a9	-0.12784065
59	0xbd9015d9	-0.07035417
60	0xbe07756a	-0.13228384
61	0xbe0f5c0d	-0.13999958
62	0xbd6a4f1a	-0.057204343
63	0xbdd70477	-0.104988985
64	0xbd92120b	-0.07132348
65	0xbdb347d3	-0.08753934
66	0xbdc237a2	-0.09483267
67	0xbc87547e	-0.016519781
68	0x3cf0678a	0.029346246
69	0x3d78dfe2	0.060760386
70	0x3de2336a	0.11044963
71	0x3e034075	0.12817557
72	0x3c21fe3e	0.009887276
73	0x3c979de6	0.018507909
74	0xbdf09749	-0.11747605
75	0x3bb0b4d0	0.0053926483
76	0x3dbc72da	0.09201594
77	0xbda0cd11	-0.07851613
78	0xbd22511e	-0.03962814
79	0xbe063400	-0.13105774
80	0xbe168875	-0.14700492
81	0xbe16a24c	-0.14710349
82	0xbd3dc649	-0.046331678
83	0xbe6a3abc	-0.22873968
84	0x3e5cc858	0.215608
85	0x3cbda049	0.023147719
86	0xbe840e7a	-0.25792295
87	0xbc24f6b2	-0.010068582
88	0xbd84ee44	-0.06490758
89	0xbd7a654b	-0.061131757
90	0xbc63e7ea	-0.013910273
91	0xbdf5bab3	-0.11998501
92	0xbdf9eb57	-0.12203091
93	0xbde582a0	-0.11206555
94	0x3dc2856d	0.09498105
95	0xbe353772	-0.17696932
96	0xbdd145ee	-0.10218416
97	0xbc22ea2b	-0.009943525
98	0xbc9cdbb8	-0.019147739
99	0xbe27f4ff	-0.16402052
100	0x3d807a3e	0.06273316
101	0xbe2c6135	-0.16833957
102	0xbda487a3	-0.08033683
103	0xbe528e86	-0.20562181
104	0x3d7eaafe	0.06217479
105	0xbd58d417	-0.05293664
106	0xbca0d8ed	-0.019634688
107	0x3dfc81c5	0.12329439
108	0xba528d3a	-0.00080319087
109	0xbd8d4f7f	-0.06899928
110	0xbd233529	-0.03984562
111	0xbb800e8c	-0.003907984
112	0xbc750cc0	-0.014956653
113	0x3d16c16d	0.03680556
114	0xbc66b79e	-0.014081864
115	0x3dac2746	0.08405928
116	0x3d74654e	0.059666924
117	0xbdc3927d	-0.09549425
118	0xbdaab572	-0.08335389
119	0xbe6414e3	-0.22273593
120	0x3e8cf2d2	0.27529007
121	0xbe0ccc03	-0.137497
122	0xbdf2a54f	-0.11847936
123	0x3c91ecb2	0.01781306
124	0xbd986f3b	-0.074430905
125	0x3c5c1459	0.013432586
126	0xbe4316ef	-0.19051717
127	0xbe0a3862	-0.13498071
128	0xbe88b48e	-0.26700252
129	0x3cab116e	0.020882335
130	0x3e25c3f3	0.1618803
131	0x3dae54e9	0.08512289
132	0xbd167de8	-0.036741167
133	0x3de5ef42	0.112272754
134	0xbbd25566	-0.0064188717
135	0xbe39fb3e	-0.18162248
136	0x3e1d41d1	0.15357138
137	0x3e50c533	0.20387726
138	0xbe29aa14	-0.16568786
139	0xbde0b326	-0.1097167
140	0x3dc437c7	0.09580951
141	0x3db28820	0.0871737
142	0xbce6c16b	-0.0281684
143	0xbd8726b7	-0.06599181
144	0xbcf87bfa	-0.030332554
145	0x3dec5b5b	0.11540862
146	0xbdede91b	-0.11616727
147	0xbe0474d2	-0.12935188
148	0x3d0df6fd	0.034659375
149	0xbcd30481	-0.025758984
150	0xbdb6b727	-0.08921652
151	0xbe2ad1d5	-0.16681607
152	0xbda6aa77	-0.08137982
153	0xbe20e57b	-0.1571254
154	0x3dbacb69	0.09120829
155	0xbd794331	-0.060855094
156	0xbdac3592	-0.08408655
157	0x3d804878	0.06263822
158	0x3d09a078	0.0336003
159	0x3beae0f4	0.00716793
160	0x3d6f611b	0.058442216
161	0xbdaf3ea1	-0.085568674
162	0xbdd999b8	-0.10625023
163	0xbda73330	-0.0816406
164	0xbdd5ff09	-0.10449035
165	0xbd88fe55	-0.06689135
166	0x3e2b5c09	0.16734327
167	0xbca7f909	-0.020504491
168	0x3c832f56	0.016013782
169	0xbde5008d	-0.11181746
170	0x3e3337e4	0.1750179
171	0x3dddd420	0.10831475
172	0xbe0f1a8f	-0.13974975
173	0x3c0c5d3a	0.008567149
174	0xbd848a03	-0.06471636
175	0xbd7f6168	-0.062348753
176	0xbe2431b6	-0.16034588
177	0xbe1c463b	-0.15261166
178	0xbc8212f5	-0.01587818
179	0xbd308b03	-0.043101322
180	0xbd3331d6	-0.0437487
181	0x3d7aa05b	0.061188083
182	0x3e3bd4ea	0.18342939
183	0xbdae08da	-0.08497782
184	0x3d4da4ee	0.050206117
185	0xbd295b52	-0.041346855
186	0xbde38a87	-0.11110406
187	0xba8edaaf	-0.0010898913
188	0x3aa88829	0.0012857962
189	0x3d3b1a88	0.0456796
190	0x3c93c679	0.018038975
191	0x3e338d07	0.17534266
192	0xbd5e7340	-0.05430913
193	0x3d13c170	0.03607315
194	0xbc3f28a7	-0.011667407
195	0x3cfe5bbe	0.031049605
196	0x3e157187	0.14594088
197	0xbe362ca7	-0.17790471
198	0x3ce06b0e	0.027394798
199	0xbb2b6527	-0.002615282
200	0xbd763cb7	-0.060116496
201	0x3e0efb50	0.13963056
202	0x3e6e7a57	0.23288856
203	0x3a9b8fde	0.0011868437
204	0xbdb68a97	-0.08913153
205	0x3e096c09	0.13420118
206	0x3db83b55	0.08995692
207	0xbd8b3882	-0.067978874
208	0x3cda7dda	0.026671339
209	0x3dbd3f48	0.092405856
210	0xbcf8c29f	-0.03036624
211	0xbdddc617	-0.10828798
212	0x3e485f50	0.19567609
213	0x3e22a609	0.1588365
214	0x3ceffe93	0.029296195
215	0xbd23a145	-0.03994872
216	0xbe337bc0	-0.17527676
217	0x3d9a3e81	0.07531453
218	0xbd602af5	-0.054728467
219	0x3e5b40d9	0.21411456
220	0xbe2ada92	-0.1668494
221	0xbe18ee68	-0.14934695
222	0xbd6ef154	-0.058335617
223	0x3d877aa4	0.06615189
224	0xbddda4c0	-0.10822439
225	0xbe41419a	-0.18872681
226	0x3e3b2da6	0.18279132
227	0x3e0f4122	0.1398969
228	0x3db12468	0.08649522
229	0x3d412ede	0.047163837
230	0xbc3e43f2	-0.011612879
231	0x3d11bd6c	0.035581037
232	0xbb4bef29	-0.0031117892
233	0x3ccf2823	0.025287693
234	0x3d2ce901	0.042214397
235	0xbbab96bd	-0.0052364753
236	0xbe1d7a9a	-0.153788
237	0xbe3eb42d	-0.18623419
238	0x3eb28471	0.3486667
239	0x3d97fac4	0.074208766
240	0xbde14512	-0.10999502
241	0xbde0a468	-0.10968858
242	0x3d42a3c8	0.047519475
243	0x3d94a2e4	0.072576314
244	0xbcad7c33	-0.021177387
245	0xbe5b6cc5	-0.21428211
246	0xbe0d50d9	-0.13800372
247	0xbd96be65	-0.073605336
248	0x3dafd438	0.085853994
249	0xbe05c55f	-0.13063572
250	0xbe489450	-0.19587827
251	0x3d82ed2f	0.063928954
252	0xbbc17b98	-0.005904626
253	0x3df66cc9	0.12032468
254	0x3e2dbbf1	0.16966225
255	0xbdf632fd	-0.12021444

conv3.bias f4 [50]
0	0x3d1bd13d	0.038041342
1	0xbc7c27bc	-0.015390333
2	0x3b81a390	0.0039562657
3	0x3b0742f9	0.0020639284
4	0x3e3b1504	0.18269736
5	0x3e8b83d9	0.2724903
6	0x3e000dc6	0.12505254
7	0x3d9b40b4	0.075807005
8	0x3e9f387c	0.31097782
9	0xbdfb86e8	-0.12281591
10	0x3dbe260f	0.09284603
11	0xbd681531	-0.056660835
12	0x3ead2f10	0.33824968
13	0x3eb1627a	0.34645444
14	0x3e24a811	0.16079737
15	0x3e542c68	0.20720065
16	0x3d6b3905	0.057427425
17	0x3e8498a1	0.25897697
18	0x3b96384f	0.004584349
19	0x3e3338b1	0.17502095
20	0x3dc72c6b	0.09725269
21	0x3eb4b3b7	0.35293362
22	0xbda36bae	-0.07979523
23	0x3dea3fed	0.11437974
24	0xbc7cc178	-0.015426986
25	0x3e1d8bce	0.15385363
26	0x3d990ebc	0.074735135
27	0x3d229898	0.039696306
28	0x3e842e23	0.2581645
29	0xbc6d8ba5	-0.014498626
30	0x3d5f68d2	0.054543324
31	0x3e3929a4	0.18082291
32	0x3e797d05	0.24364097
33	0x3cc403bc	0.023927562
34	0x3e2c6aa2	0.16837552
35	0x3dbede4b	0.09319743
36	0x3db40700	0.08790398
37	0xbdb1cc92	-0.08681597
38	0x3db7c441	0.08972979
39	0x3dbd38b2	0.092393294
40	0x3c7de70f	0.015496983
41	0x3d2572c3	0.04039265
42	0x3df10cef	0.11770045
43	0xbe65c682	-0.22439006
44	0x3d7878fb	0.06066225
45	0x3a664820	0.0008784551
46	0x3e14a850	0.14517331
47	0x3cdbe72b	0.026843628
48	0x3e54830f	0.2075312
49	0x3d847eed	0.06469522

conv4.weight f4 [100, 1, 50, 2]
0	0x3dd87e4b	0.105709635
1	0x3da2b8db	0.07945415
2	0x3cdccdc2	0.026953582
3	0x3da938f4	0.08262816
4	0x3ded7588	0.11594683
5	0x3da5bc12	0.08092512
6	0xbcd594e5	-0.026071975
7	0xbd22d471	-0.03975338
8	0x3db33a9d	0.08751414
9	0x3e1127c0	0.1417532
10	0xbcd29885	-0.025707493
11	0x3bfbc798	0.0076837055
12	0xbdc8e2a3	-0.098088525
13	0xbdd8d14b	-0.105867945
14	0x3da81b37	0.08208316
15	0xbd83dda2	-0.064387575
16	0xbc73d513	-0.014882344
17	0xbbe506ad	-0.006989321
18	0xbd8a9b00	-0.06767845
19	0x3d902587	0.07038408
20	0xbd0b1123	-0.03395189
21	0xbd2cc8a5	-0.042183537
22	0xbd949652	-0.07255234
23	0x3cd4d4c5	0.025980363
24	0xbd99e35f	-0.07514071
25	0x3ca1bbfc	0.019742958
26	0x3d973ab9	0.07384247
27	0x3dab817e	0.08374308
28	0xbdd4eeae	-0.10397087
29	0xbdc13f62	-0.094359174
30	0x3d6f620c	0.058443114
31	0x3dd39e25	0.10332898
32	0x3d8669c9	0.06563146
33	0x3c9ccbe6	0.019140195
34	0xbbdc38e2	-0.006720648
35	0xbdc991cd	-0.098422624
36	0x3d33a556	0.04385885
37	0xbda9c6af	-0.08289849
38	0x3d823507	0.063577704
39	0xbc620208	-0.01379443
40	0xbd27ac04	-0.04093553
41	0x3d2724d2	0.0408066
42	0xbc770cab	-0.015078704
43	0xbd230cc0	-0.03980708
44	0xbbf06c4a	-0.007337128
45	0xbd5ca09f	-0.053864118
46	0x3c6f3736	0.014600566
47	0x3d41cc50	0.04731399
48	0x3d2c9344	0.04213263
49	0x3c672ce1	0.014109821
50	0x3dbdc567	0.09266167
51	0x3d4613a5	0.04835858
52	0xbc85a1fc	-0.016312592
53	0xb9a7ef7f	-0.0003203116
54	0x3da5935d	0.08084748
55	0x3dd64b37	0.10463565
56	0xbe1014c1	-0.14070417
57	0xbd00dd03	-0.031460773
58	0xbdc613c1	-0.096717365
59	0xbdb2c229	-0.08728439
60	0xbbb81ed8	-0.0056189112
61	0xbdb707d0	-0.08937037
62	0xbd3b3de4	-0.04571332
63	0xbc1af353	-0.009457427
64	0xbd4501c9	-0.048097406
65	0xbd8a87cf	-0.06764185
66	0xbda1acc6	-0.07894282
67	0xbc5cc575	-0.013474812
68	0xbdc8186b	-0.09770282
69	0x3c3689a4	0.0111412145
70	0xbcf0113b	-0.029305091
71	0xbdc31df4	-0.095271975
72	0x3d804028	0.06262237
73	0x3dfa8bd5	0.12233702
74	0xbb301eb2	-0.0026873765
75	0xbd8ebbdf	-0.06969427
76	0x3d8a2ca6	0.06746797
77	0xbd1a9375	-0.037738282
78	0x3e08e3fb	0.13368218
79	0x3d5f6a53	0.054544758
80	0xbd44d555	-0.04805501
81	0x3bc8efe5	0.0061321133
82	0xbc23538b	-0.009968649
83	0xbdc028f5	-0.09382812
84	0xbd13a106	-0.036042236
85	0xbd1d7fef	-0.038452085
86	0x3cf7fc34	0.030271627
87	0x3c97581f	0.018474637
88	0xbd5a412b	-0.053284805
89	0xbda56086	-0.08075051
90	0xbd6781f4	-0.056520417
91	0xbb981d4f	-0.0046421657
92	0x3cb4cc03	0.022069937
93	0x3cea8c1a	0.028631259
94	0xbd7ec37e	-0.062198155
95	0x3cc97959	0.024593996
96	0x3d8daca8	0.06917697
97	0x3d5d8291	0.054079596
98	0x3d8dc0b7	0.06921523
99	0x3be9d0db	0.007135493
100	0x3d868ba0	0.065696
101	0x3d5b2ee8	0.05351153
102	0x3d6b85fc	0.057500824
103	0x3da5d972	0.08098115
104	0x3de18a0f	0.11012661
105	0x3de40f62	0.111357465
106	0x3d3afede	0.045653217
107	0xbc99a0ab	-0.01875337
108	0xbcd7e9b1	-0.02635655
109	0x3df0b790	0.11753762
110	0xbcfdbfbf	-0.03097522
111	0xbd5a1fab	-0.053252857
112	0xbdf7b7ca	-0.12095602
113	0xbd077152	-0.033067055
114	0x3dec603e	0.11541794
115	0xbc76eabd	-0.015070614
116	0xbd10e5e8	-0.035375506
117	0x3d60d0dc	0.054886684
118	0x3d382ca1	0.044964436
119	0x3c816045	0.015792975
120	0x3c6873f4	0.014187802
121	0x3d991518	0.074747264
122	0xbc642282	-0.013924243
123	0xbe0a3b1b	-0.1349911
124	0xbd52b1fc	-0.05143927
125	0x3d05c180	0.03265524
126	0xbd79ffc7	-0.061034944
127	0x3d710e07	0.05885127
128	0xbd152e75	-0.036421258
129	0x3c2190e3	0.009861204
130	0x3b1d91d6	0.0024043224
131	0xbd46f73c	-0.048575625
132	0x3d8dd0bb	0.06924578
133	0x3dcb6ea2	0.09933211
134	0xbd6bb303	-0.057543766
135	0xbdd99940	-0.10624933
136	0x397e9be2	0.00024281399
137	0xbd8dccc4	-0.069238216
138	0xbdb86851	-0.09004272
139	0xbd9c0ca7	-0.07619601
140	0x3d0e524b	0.03474645
141	0x3d5c8c43	0.0538447
142	0x3c84c45c	0.016206913
143	0x3d9ce4de	0.076608405
144	0xbca38cc8	-0.01996459
145	0x3d629144	0.055314317
146	0xbd5b2b65	-0.05350818
147	0x3d5698a7	0.052391674
148	0x3b9b0de5	0.004731881
149	0x3d2bb79d	0.041923154
150	0x3ce20973	0.027592396
151	0x3d4386f3	0.04773612
152	0x3d922b9f	0.07137226
153	0x3ac8e3d8	0.0015326692
154	0x3d383040	0.04496789
155	0xbc89fb31	-0.01684341
156	0x3d0ef959	0.034905765
157	0xbd44ecfb	-0.048077565
158	0xbdf22fca	-0.11825521
159	0xbd5de064	-0.054169074
160	0xbd94b961	-0.07261921
161	0xbd61c0ea	-0.055115618
162	0xbd36e00a	-0.044647254
163	0x3d135864	0.035972968
164	0x3ca4c05c	0.020111255
165	0x3d718aed	0.05897038
166	0x3d75ddc1	0.060025934
167	0x3b79e306	0.0038129701
168	0xbd89530a	-0.067052916
169	0xbdca6b00	-0.0988369
170	0xbccb365b	-0.024806192
171	0x3c3fc7d8	0.011705361
172	0x3cc5ee1b	0.02416139
173	0x3d991c40	0.074760914
174	0x3d224e2d	0.039625335
175	0xbc89e260	-0.016831577
176	0x3d13c6ba	0.036078192
177	0x3d45505f	0.04817235
178	0x3dc3a2c6	0.09552531
179	0x3d758bb8	0.0599477
180	0x3db2e45f	0.087349646
181	0x3d97eaf4	0.074178606
182	0xbce1811d	-0.027527386
183	0x3d56ae04	0.052412048
184	0xbc20c710	-0.009813085
185	0x3d037273	0.03209157
186	0xbd4b0785	-0.049567718
187	0xbda06d62	-0.07833363
188	0x3dd79225	0.10525922
189	0x3d8df6e8	0.06931859
190	0xbd8a7c2f	-0.067619674
191	0x3c865155	0.016396204
192	0xbd449986	-0.047997974
193	0x3da72715	0.08161751
194	0xbd7a8270	-0.06115955
195	0xbc349cc4	-0.011023704
196	0xbdbd59c5	-0.09245638
197	0x3d710f00	0.058852196
198	0xbcae3c64	-0.02126903
199	0xbdab6855	-0.08369509
200	0xbdd7e819	-0.10542316
201	0xbdba86ba	-0.09107728
202	0x3c82e6f4	0.015979268
203	0x3a85e55a	0.0010215447
204	0xbd0b7e22	-0.034055836
205	0xbdf0205f	-0.11724924
206	0x3dbd433f	0.09241342
207	0x3d921534	0.071329504
208	0x3d42e61a	0.047582723
209	0x3d3c1f8a	0.045928515
210	0x3b707680	0.0036691725
211	0xbd5929bd	-0.05301832
212	0xbe326c46	-0.17424116
213	0xbdf8b75c	-0.12144348
214	0xbd53aeb6	-0.05168029
215	0x3d8ef631	0.06980551
216	0x3d83909f	0.06424069
217	0xbd81298d	-0.06306753
218	0x3dd68079	0.10473723
219	0xbd3358e3	-0.04378594
220	0xbcb67ee9	-0.022277312
221	0xbd307751	-0.04308254
222	0x3df5c855	0.12001101
223	0x3d3c0a89	0.045908485
224	0x3dacc058	0.08435124
225	0x3d9566bc	0.07294986
226	0x3cccc062	0.024994079
227	0xbd14298a	-0.036172427
228	0xbdeeb7d1	-0.11656154
229	0xbe17db57	-0.14829765
230	0xbd8963ca	-0.067084864
231	0xbce06ab3	-0.027394628
232	0x3d9ad94d	0.07560978
233	0x3ded4e9c	0.11587259
234	0x3d34b28a	0.04411558
235	0x3de0cfdd	0.10977147
236	0x3d5fcb4d	0.054637242
237	0xbd06f6b3	-0.032950114
238	0xbd092aa1	-0.03348792
239	0xbd9beea2	-0.07613875
240	0xbdc6a210	-0.0969888
241	0x3d280bee	0.041027002
242	0x3d06b7f0	0.03289026
243	0x3c8b0a66	0.016972732
244	0x3d93efdd	0.07223485
245	0xbd9feada	-0.07808466
246	0x3e107943	0.14108758
247	0x3dced25b	0.10098716
248	0xbd87e9f2	-0.066364184
249	0xbcfb8c1f	-0.030706463
250	0x3cece0b8	0.028915748
251	0xbd606d72	-0.054791875
252	0xbc321f22	-0.01087168
253	0xbc7b657d	-0.015344021
254	0x3dde2d96	0.108485386
255	0x3d0fb69d	0.035086263

conv4.bias f4 [100]
0	0xbab91928	-0.0014121877
1	0xbb91a3e6	-0.004444587
2	0x3dc59803	0.096481346
3	0xbd8c700d	-0.068573095
4	0x3cc1890c	0.02362492
5	0x3d5598b2	0.052147575
6	0x3d57215e	0.052522056
7	0x3d9391eb	0.07205566
8	0xbd155ad4	-0.036463574
9	0x3d128fae	0.035781555
10	0x3da40bb1	0.080100425
11	0xbc018659	-0.007905566
12	0xbd776ced	-0.060406614
13	0x3db5a399	0.088690944
14	0xbd608493	-0.054813933
15	0xbdb0bb27	-0.086294465
16	0x3d42d146	0.04756286
17	0x3d7c25ba	0.061559416
18	0xbda79492	-0.081826344
19	0x3d698136	0.05700799
20	0xbd4a24f0	-0.049351633
21	0x3d658952	0.056039162
22	0xbd887d88	-0.06664568
23	0x3cbf7200	0.02336979
24	0x3d9bbb29	0.07604057
25	0x3d620832	0.055183597
26	0x3d0cade2	0.034345515
27	0x3a47370a	0.0007599449
28	0xbda4f5ea	-0.08054717
29	0x3cabdee8	0.020980313
30	0x3d67a18e	0.056550555
31	0xbd0cf9d4	-0.034417942
32	0x3c4a0a68	0.012331583
33	0xbb1bae50	-0.0023755021
34	0xbdc273db	-0.09494754
35	0xbd0303aa	-0.031985916
36	0xbcbae3a8	-0.022813633
37	0xbdad2fa7	-0.084563546
38	0xbd2aafba	-0.041671492
39	0xbd2674f3	-0.040638875
40	0xbd840d96	-0.06447904
41	0x3cdb4594	0.026766576
42	0xbd3b644d	-0.04574995
43	0x3d81a0f3	0.06329527
44	0x3cf1ca1c	0.029515319
45	0xbb30f97a	-0.0027004168
46	0x3c2fd1d8	0.010731183
47	0x3cf01444	0.029306538
48	0x3c99816c	0.018738471
49	0xbd28c3cd	-0.041202355
50	0xb9df789a	-0.0004262373
51	0x3c1e2618	0.009652637
52	0x3dab6453	0.08368745
53	0xbda2ca75	-0.07948772
54	0x3cc7e848	0.024402753
55	0xbd35b033	-0.04435749
56	0x3d3b069a	0.045660593
57	0xbd7ef8f3	-0.062249135
58	0x3d89621d	0.06708167
59	0x3daa9651	0.08329452
60	0xbd1c1570	-0.038106382
61	0xbc6802d7	-0.014160833
62	0xbd3da3ad	-0.04629867
63	0x3d35dc42	0.044399507
64	0x3d50d5be	0.05098509
65	0x3d4bbe7e	0.049742214
66	0xbd8ab915	-0.06773583
67	0xbd029bac	-0.03188674
68	0xbd36fad0	-0.044672787
69	0xbd747797	-0.059684362
70	0x3d79a922	0.060952313
71	0x3dba8279	0.09106917
72	0xbc074e9a	-0.008258486
73	0xbd8248d6	-0.063615486
74	0x3da83dd9	0.082149215
75	0xbccf1e80	-0.025283098
76	0x3dc1a4e1	0.09455276
77	0x3ad0df31	0.0015935657
78	0x3d135dce	0.03597813
79	0x3c8ba5d4	0.017046846
80	0xbc862eac	-0.016379677
81	0x3d12f822	0.03588117
82	0xbd93b590	-0.07212365
83	0x3cb18b40	0.021672845
84	0x3c706ed0	0.014674857
85	0x3cdb266c	0.02675172
86	0xbc90ed20	-0.017691195
87	0xbdc431aa	-0.09579785
88	0xbc150ec0	-0.009097755
89	0xbd515107	-0.051102664
90	0xbdafce83	-0.08584311
91	0x3c65df12	0.014030235
92	0xbc1e3130	-0.009655282
93	0x3d7e183e	0.062034838
94	0x3d9a3b89	0.07530887
95	0x3d947dc3	0.0725055
96	0x3d54bd0a	0.051938094
97	0x3da14365	0.078741826
98	0xbdcac935	-0.099016584
99	0xbcf04600	-0.029330254

bn2.weight f4 [100]
0	0x3f80138c	1.0005965
1	0x3f7dbcac	0.99116015
2	0x3f83f4a0	1.0309029
3	0x3f82fc72	1.023329
4	0x3f80ebb4	1.0071931
5	0x3f80223a	1.0010445
6	0x3f7f7584	0.9978869
7	0x3f75cccc	0.9601562
8	0x3f7fda46	0.99942434
9	0x3f779289	0.9670797
10	0x3f7d04b9	0.9883533
11	0x3f7d2c6a	0.98895895
12	0x3f859362	1.0435603
13	0x3f801a22	1.0007975
14	0x3f82d57e	1.0221403
15	0x3f81cf40	1.0141373
16	0x3f7de62a	0.9917933
17	0x3f8027d3	1.0012153
18	0x3f79997c	0.97499824
19	0x3f861d95	1.0477778
20	0x3f7a9504	0.9788363
21	0x3f7c09e9	0.9845262
22	0x3f804639	1.002143
23	0x3f8399c5	1.0281302
24	0x3f8492b1	1.0357267
25	0x3f7ba268	0.9829469
26	0x3f88d4e1	1.0689965
27	0x3f7e522a	0.9934412
28	0x3f84837f	1.035263
29	0x3f79b5e0	0.97543144
30	0x3f83f468	1.0308962
31	0x3f78cc06	0.97186315
32	0x3f7ea683	0.99472827
33	0x3f7cc4b9	0.98737675
34	0x3f87a603	1.0597538
35	0x3f85a153	1.0439857
36	0x3f857ecf	1.0429324
37	0x3f84bf81	1.0370942
38	0x3f81524c	1.010324
39	0x3f7cda4e	0.98770607
40	0x3f7900ed	0.9726704
41	0x3f80a2b1	1.004965
42	0x3f7a654d	0.9781082
43	0x3f7a65f2	0.97811806
44	0x3f802c24	1.0013471
45	0x3f83b0bd	1.0288311
46	0x3f79e9dd	0.9762247
47	0x3f7a8917	0.9786543
48	0x3f8170b2	1.0112517
49	0x3f7597dd	0.9593485
50	0x3f83b9b6	1.029105
51	0x3f7ec4ae	0.9951886
52	0x3f7a2340	0.9771004
53	0x3f7abad8	0.9794135
54	0x3f847752	1.0348914
55	0x3f8131a3	1.0093273
56	0x3f768a01	0.9630433
57	0x3f77711a	0.96656954
58	0x3f7e91ea	0.994414
59	0x3f7e0a85	0.992348
60	0x3f7f787c	0.9979322
61	0x3f84eefb	1.0385431
62	0x3f78c57c	0.9717634
63	0x3f830441	1.0235673
64	0x3f78328f	0.96952146
65	0x3f7e7f76	0.9941324
66	0x3f7989c1	0.9747582
67	0x3f7e9630	0.9944792
68	0x3f7a1b93	0.97698325
69	0x3f7ca373	0.98686904
70	0x3f81cea9	1.0141193
71	0x3f802a25	1.0012861
72	0x3f80a3c0	1.0049973
73	0x3f7c4a9e	0.98551357
74	0x3f81fba6	1.0154922
75	0x3f7bbff1	0.98339754
76	0x3f81bd72	1.0135939
77	0x3f803fde	1.0019491
78	0x3f80a13c	1.0049205
79	0x3f7cb369	0.9871126
80	0x3f81756f	1.0113963
81	0x3f7c3969	0.985251
82	0x3f7a2f18	0.9772811
83	0x3f83c324	1.0293927
84	0x3f831ac3	1.0242542
85	0x3f72e603	0.9488222
86	0x3f79a064	0.9751036
87	0x3f7c8953	0.9864704
88	0x3f7b0470	0.98053646
89	0x3f8291e8	1.0200777
90	0x3f7c5a12	0.98574936
91	0x3f86fde9	1.0546237
92	0x3f7f8f04	0.998276
93	0x3f7caf74	0.9870522
94	0x3f77fce8	0.9687028
95	0x3f7aaf0d	0.97923356
96	0x3f80018d	1.0000473
97	0x3f823f9e	1.0175664
98	0x3f800272	1.0000746
99	0x3f7cd1ff	0.9875793

bn2.bias f4 [100]
0	0xb1ee09ec	-6.9278396e-09
1	0x3170afbb	3.5024488e-09
2	0xafa5edff	-3.0182432e-10
3	0xb0a1dc2b	-1.1776867e-09
4	0x3199f0c5	4.4802584e-09
5	0xb14d5815	-2.9881495e-09
6	0x31ea5f54	6.821134e-09
7	0x30dc5786	1.6031982e-09
8	0xb08a776e	-1.0074765e-09
9	0x3126e1a2	2.4284437e-09
10	0xb0ce38ba	-1.5004595e-09
11	0xb09fadf3	-1.1618212e-09
12	0xb13330a8	-2.6075586e-09
13	0xb1c3ebce	-5.702055e-09
14	0xb14ff8ce	-3.0263894e-09
15	0xb1504afe	-3.0310612e-09
16	0xb144b85b	-2.8626548e-09
17	0x3197c8c8	4.4175046e-09
18	0xb1a4cef9	-4.7965583e-09
19	0x3204121c	7.687529e-09
20	0xb1963fd0	-4.372829e-09
21	0x316709b5	3.3620442e-09
22	0x31d01a13	6.056561e-09
23	0x30815a72	9.411691e-10
24	0x321f8ed2	9.287492e-09
25	0x312b934d	2.4967506e-09
26	0xb1f48813	-7.1168045e-09
27	0xb1e5551f	-6.6744543e-09
28	0x310f267c	2.0831115e-09
29	0xb1fcc233	-7.356243e-09
30	0xb1e57b76	-6.678813e-09
31	0xb19c0ef6	-4.5418984e-09
32	0x30d44d8e	1.5447073e-09
33	0xb1008f81	-1.8708024e-09
34	0x315d750a	3.2226262e-09
35	0xb21ab01c	-9.004022e-09
36	0xb0bdc3cb	-1.3807208e-09
37	0xb16b635d	-3.4253482e-09
38	0xb04eff82	-7.530546e-10
39	0xb0da79bc	-1.5896187e-09
40	0xb004b0ef	-4.827276e-10
41	0xb0db11d4	-1.5939414e-09
42	0xb192d576	-4.273427e-09
43	0xb0b31c63	-1.3032032e-09
44	0x3182ac3f	3.80308e-09
45	0xb1c3fe8c	-5.7041856e-09
46	0x2f70c619	2.1898251e-10
47	0x305bcbf8	7.9961593e-10
48	0xb15ecff8	-3.2423468e-09
49	0xae5d6a0b	-5.0343767e-11
50	0xb125906b	-2.4092752e-09
51	0xb09ba277	-1.132391e-09
52	0x319564ab	4.3479154e-09
53	0xb18f84a9	-4.1769295e-09
54	0xb11ca345	-2.2793796e-09
55	0x30bc3b46	1.3695647e-09
56	0x31e5d18e	6.688601e-09
57	0xb1b31de9	-5.212986e-09
58	0xb1410ef7	-2.8093703e-09
59	0x31ab3fd0	4.9840096e-09
60	0xb170e744	-3.5056056e-09
61	0x3237a659	1.0689825e-08
62	0x318adda9	4.0415284e-09
63	0xb0a5333d	-1.2019893e-09
64	0x3119cc89	2.2380695e-09
65	0xb0611324	-8.1881724e-10
66	0x313bc38d	2.732324e-09
67	0x30ef85fb	1.7427618e-09
68	0x2ef6d8ef	1.122532e-10
69	0x2f600e5b	2.0377781e-10
70	0x31eb90b6	6.855852e-09
71	0x3139a7c3	2.7016405e-09
72	0x30953d2a	1.0858561e-09
73	0x318c58b7	4.084622e-09
74	0xb056720e	-7.801483e-10
75	0xb1ada45b	-5.0536477e-09
76	0xb1f8d755	-7.2422304e-09
77	0xb095d17f	-1.0900719e-09
78	0xb01c4a43	-5.6858e-10
79	0x31af82c9	5.108039e-09
80	0x31206025	2.3337716e-09
81	0x318eb23c	4.153007e-09
82	0x31a55709	4.8120268e-09
83	0xb1e78f08	-6.7392456e-09
84	0xb0ba61f6	-1.3561123e-09
85	0x30239790	5.951444e-10
86	0x30c3b550	1.423965e-09
87	0xb092d1e2	-1.068255e-09
88	0xb02771bd	-6.091588e-10
89	0x3266c8fa	1.3433459e-08
90	0xb1ccbeb2	-5.958861e-09
91	0x32056b15	7.7659665e-09
92	0x31ba78a0	5.427026e-09
93	0x30222c8f	5.899858e-10
94	0x30d55843	1.5522875e-09
95	0x313046a8	2.5651534e-09
96	0xb14c74d6	-2.975232e-09
97	0x30eb146e	1.7104307e-09
98	0x305cf9ff	8.03908e-10
99	0x31c3cdd8	5.6986487e-09

bn2.running_mean f4 [100]
0	0x3bf4eea6	0.007474738
1	0x3de874b7	0.113503866
2	0xbc6cf25e	-0.014462082
3	0xbd72c645	-0.059271116
4	0x3d88c135	0.06677476
5	0x3d490a8d	0.049082328
6	0x3dfc3b8f	0.123160474
7	0xbd4ba82a	-0.04972092
8	0xbe0b0df4	-0.13579541
9	0x3bfe43b4	0.0077595357
10	0x3d7b9181	0.06141806
11	0xbe870331	-0.26369622
12	0xbd49306b	-0.04911844
13	0x3e04748a	0.12935081
14	0x3e020ad1	0.12699439
15	0xbc9ec9a8	-0.019383267
16	0x3cc0ae39	0.023520576
17	0x3afee4f6	0.0019446898
18	0xbd21d5a6	-0.03951039
19	0x3e12582a	0.14291444
20	0xbe1b0485	-0.15138443
21	0xbe1ca8e7	-0.15298806
22	0xbe733965	-0.23752363
23	0xbcbef06d	-0.023308003
24	0x3e5c3862	0.21505883
25	0xbd023471	-0.031788293
26	0xbbaafb1c	-0.005217923
27	0x3bf6bf12	0.0075301016
28	0xbdfaddac	-0.12249312
29	0x3e4bcf45	0.19903286
30	0x3c3a5797	0.011373422
31	0xbe6b8340	-0.22999287
32	0xbd5b8b4e	-0.05359965
33	0x3ea8f96f	0.33002803
34	0xbd0131b3	-0.031541537
35	0x3d22b3b6	0.039722167
36	0xbcebb0bc	-0.028770797
37	0xbd170a06	-0.036874793
38	0xbca0c777	-0.019626362
39	0xbdaf1eb2	-0.085507765
40	0xbc9f0578	-0.019411787
41	0x3d910c3f	0.07082414
42	0xbe2fc2ad	-0.17164107
43	0xbc6afb94	-0.014342207
44	0x3e2c7f32	0.16845396
45	0xbce1ceb5	-0.027564386
46	0x3da5638a	0.08075626
47	0xbcb9ba02	-0.022671703
48	0xbcd37836	-0.025814157
49	0xbdf6c867	-0.120499425
50	0x3c0f6c8a	0.008753905
51	0x3c76955d	0.015050259
52	0x3d6c7c96	0.057736002
53	0xbd23c8ce	-0.039986424
54	0x3bad0139	0.005279687
55	0xbe3ad2c1	-0.18244459
56	0x3c986264	0.018601604
57	0xbdefea8f	-0.117146604
58	0x3df4fe90	0.119626164
59	0x3d599faf	0.0531308
60	0xbe8abf5b	-0.27099118
61	0x3cb6994e	0.022289898
62	0x3d97eccb	0.074182115
63	0x3e1630bb	0.14667027
64	0xbe2125a2	-0.15737012
65	0x3e8be247	0.27321073
66	0xbe0bd84b	-0.13656728
67	0x3d2d817d	0.042359818
68	0xbc68d0a0	-0.014209896
69	0xbe2a2738	-0.16616523
70	0x3e45abbc	0.19303793
71	0x3e0cd1c4	0.13751894
72	0x3d01224b	0.031526845
73	0xbce5f691	-0.028071674
74	0xbd1bd9df	-0.038049575
75	0x3db85203	0.090000175
76	0x3e1bc215	0.15210755
77	0x3c6b6e6e	0.01436959
78	0x3dddc38e	0.10828315
79	0x3e717f62	0.23583749
80	0xbe321de1	-0.1739421
81	0x3d8bc654	0.068249375
82	0xbe7ce754	-0.2469762
83	0x3c855ec8	0.016280547
84	0xbc5ec8f6	-0.0135977175
85	0xbdcf01d8	-0.101077735
86	0x3d5d5683	0.054037582
87	0x3dce2c61	0.10067058
88	0x3b6981b1	0.003563028
89	0x3d629add	0.05532347
90	0x3d1b243f	0.037876364
91	0x3e7c592a	0.24643388
92	0xbe224cbf	-0.15849589
93	0x3e074f24	0.13213784
94	0x3e3f8888	0.18704426
95	0x3d02c778	0.03192851
96	0x3e2561bd	0.16150565
97	0x3da9d685	0.082928695
98	0xbe083d39	-0.13304605
99	0x3c843992	0.016140733

bn2.running_var f4 [100]
0	0x3c70bc76	0.01469337
1	0x3ca083f3	0.019594168
2	0x3cd46e71	0.025931569
3	0x3ca5632b	0.020188889
4	0x3c796667	0.0152221685
5	0x3c91ebba	0.017812598
6	0x3c9136d5	0.017726341
7	0x3c2ecdd0	0.010669187
8	0x3cad063f	0.021121142
9	0x3c2ab990	0.010420218
10	0x3c923126	0.017845701
11	0x3c9b68b5	0.018970827
12	0x3c45fe55	0.012084563
13	0x3cc91206	0.024544727
14	0x3c7d6e57	0.015468202
15	0x3c65a3e4	0.014016125
16	0x3c888833	0.016666507
17	0x3c7be5c9	0.015374609
18	0x3cdd33ff	0.027002333
19	0x3ca43401	0.020044329
20	0x3c3b1234	0.011417914
21	0x3ca0f650	0.019648701
22	0x3c969ecf	0.018386273
23	0x3c9a7b7c	0.01885771
24	0x3cb94d87	0.022619976
25	0x3c92d4ea	0.017923791
26	0x3ca9fbcd	0.02074995
27	0x3c8c89a1	0.01715547
28	0x3c9b1c5c	0.018934421
29	0x3c84dbf0	0.016218156
30	0x3ca18d3d	0.019720668
31	0x3c853a12	0.016263042
32	0x3c999abb	0.018750539
33	0x3ca763d3	0.020433342
34	0x3cde7e77	0.027159913
35	0x3c7efe30	0.015563533
36	0x3c9777db	0.018489769
37	0x3c92fb39	0.017942058
38	0x3cb70a61	0.022343816
39	0x3cbafc93	0.022825515
40	0x3c500600	0.012696743
41	0x3cb399ba	0.021923888
42	0x3c508e48	0.012729235
43	0x3c606c6c	0.013697725
44	0x3ca466bf	0.020068524
45	0x3cb4440f	0.02200511
46	0x3c78ac78	0.0151778385
47	0x3c805abf	0.015668271
48	0x3c87086e	0.016483512
49	0x3c81663a	0.015795816
50	0x3cb3f574	0.021967627
51	0x3c650843	0.0139790205
52	0x3c0bec3d	0.00854021
53	0x3c736c98	0.014857434
54	0x3c8841a2	0.016632859
55	0x3c8a8c4c	0.016912602
56	0x3c70d68b	0.0146995885
57	0x3c6a4c90	0.0143004805
58	0x3c836ebe	0.016044017
59	0x3cfefcb5	0.03112636
60	0x3ca748e1	0.020420494
61	0x3cb94452	0.022615585
62	0x3c534689	0.012895235
63	0x3caae668	0.02086182
64	0x3c925373	0.017862057
65	0x3cccaaff	0.024983881
66	0x3c7d40f0	0.015457377
67	0x3c8a7109	0.016899602
68	0x3c5e706c	0.013576608
69	0x3c93e8ec	0.018055402
70	0x3cb130e0	0.02162975
71	0x3c9ca00a	0.019119281
72	0x3c85578d	0.016277099
73	0x3c2c224f	0.010506227
74	0x3cafc335	0.021455387
75	0x3cbd65b7	0.02311979
76	0x3c8fefa8	0.017570332
77	0x3c8ca306	0.01716758
78	0x3c7772b6	0.015103033
79	0x3cc258bc	0.023723952
80	0x3c8358d3	0.016033566
81	0x3c5d4ddd	0.013507334
82	0x3c621b1a	0.013800407
83	0x3c579240	0.013157427
84	0x3c843c02	0.016141895
85	0x3c2f5ae9	0.010702827
86	0x3ca5fed2	0.02026311
87	0x3cc66102	0.024216179
88	0x3c998f8c	0.018745206
89	0x3c7bd4c4	0.0153705515
90	0x3c8441a3	0.01614458
91	0x3cf0456a	0.029329974
92	0x3c9e5cb6	0.019331317
93	0x3c85edf4	0.016348816
94	0x3c829fb5	0.015945295
95	0x3c289a3c	0.010290679
96	0x3c8ef93a	0.017452825
97	0x3c4ff3c3	0.012692395
98	0x3c1ff7d9	0.009763681
99	0x3c81b126	0.015831541

fc1.weight f4 [100, 100]
0	0xbc963451	-0.018335493
1	0xbc9766e3	-0.018481677
2	0xbc026c75	-0.0079604285
3	0x3c86e0e4	0.016464658
4	0x3d53530f	0.051592883
5	0xbc9ed2cd	-0.019387627
6	0x3ca5426e	0.020173278
7	0x3d17961e	0.037008397
8	0xbde611db	-0.112338744
9	0x3d972614	0.0738031
10	0xbd6aa9f2	-0.05729098
11	0x3cd24580	0.025667906
12	0xbdf31956	-0.11870067
13	0xbd98649f	-0.07441067
14	0xbc36b6b8	-0.011151962
15	0x3ce16838	0.027515516
16	0x3b3960da	0.0028286488
17	0x3cf2ce6b	0.029639443
18	0x3b444565	0.002994859
19	0x3dbe191e	0.092821345
20	0xbda43d90	-0.080195546
21	0xbbcb56a5	-0.006205397
22	0x3d9d77d0	0.07688868
23	0xbdbf9de4	-0.09356287
24	0x3c1e98f3	0.009680021
25	0xbc81f751	-0.015865
26	0x3d815770	0.063155055
27	0x3b8c632b	0.0042842827
28	0x3a09565e	0.0005239005
29	0xbdf9ac82	-0.121911064
30	0x3d2d5c1e	0.042324178
31	0xbd9ffbba	-0.07811685
32	0xbcf1f258	-0.029534504
33	0x3d744642	0.059637316
34	0x3ddca8a1	0.10774351
35	0xbd4ecac4	-0.05048634
36	0xbcc26d22	-0.02373368
37	0x3c30d957	0.010794005
38	0xbca2d6b6	-0.019877773
39	0x3d01e8cf	0.031716164
40	0xbd696f0b	-0.056990664
41	0x3d2a35fc	0.04155539
42	0x3d578862	0.0526203
43	0xbcf70042	-0.03015149
44	0xbbea4d1d	-0.007150306
45	0xbde91573	-0.11381044
46	0xbdc0c85b	-0.09413215
47	0x3c6f6122	0.014610561
48	0x3c483e99	0.012221956
49	0xbd003404	-0.031299606
50	0xbce849ae	-0.028355446
51	0x3da75a44	0.08171514
52	0x3ca7c959	0.020481752
53	0x3d273689	0.040823493
54	0x3d850e3e	0.06496857
55	0x3dbcf49a	0.092263415
56	0xbcf1c381	-0.029512169
57	0xbbfb600d	-0.0076713623
58	0xbcd7cf75	-0.02634404
59	0x3d91b19b	0.07113954
60	0xbd52b72c	-0.051444218
61	0xbe33b888	-0.17550862
62	0x3cf9a196	0.030472558
63	0x3d3844a2	0.04498733
64	0xbbf30267	-0.007416058
65	0xbd85df98	-0.06536788
66	0x3ceb2aff	0.028707026
67	0xbd5191c3	-0.0511644
68	0x3dccbff4	0.0999755
69	0xbc388fc5	-0.011264746
70	0x3d94fce0	0.072747946
71	0xbdfe140a	-0.12406166
72	0x3cd22fa5	0.025657484
73	0xbde4e1a2	-0.111758485
74	0xbda8d398	-0.08243483
75	0x3d0a611b	0.033784013
76	0xbce516a7	-0.027964903
77	0xbdaf4574	-0.08558169
78	0x3ce35111	0.027748616
79	0x3c0b81f9	0.008514875
80	0xbdbb0d37	-0.0913338
81	0x3d94b7de	0.072616324
82	0x3d0c71ae	0.0342881
83	0x3defffc8	0.11718708
84	0x3d780564	0.060552016
85	0xbde5d60b	-0.11222466
86	0x3d4d8649	0.050176892
87	0x3d908227	0.070560746
88	0xbd97ddcc	-0.07415351
89	0xbda00094	-0.0781261
90	0xbdae2b2e	-0.085043296
91	0xbd8f35a7	-0.06992655
92	0xbd48a19a	-0.04898224
93	0xbd934d01	-0.07192422
94	0xbd8b90d2	-0.06814732
95	0xbd62e055	-0.05538972
96	0xbcfebc05	-0.031095514
97	0xbd4593ec	-0.048236772
98	0xbd0c8927	-0.034310486
99	0x3c4fc5ae	0.012681408
100	0x3d55ea92	0.052225657
101	0x3d36a32f	0.044589218
102	0xbd8af0fd	-0.06784246
103	0x3d5f65f7	0.0545406
104	0x3cfcc2e8	0.030854657
105	0x3ab229ad	0.0013592743
106	0xbdd3771b	-0.10325452
107	0x3d825264	0.06363371
108	0x3d4aaf88	0.049483806
109	0xbba60849	-0.0050669056
110	0x3d1c55f5	0.038167913
111	0xbc18402d	-0.009292644
112	0x3d5336d2	0.051565953
113	0x3d3c7e5e	0.04601895
114	0xbd35dd0b	-0.044400256
115	0xbc208436	-0.009797147
116	0xbcc0dbda	-0.023542333
117	0x3d2659c0	0.040612936
118	0x3dc876fc	0.097883195
119	0x3d72140d	0.059101153
120	0x3da1467b	0.07874771
121	0xbd40c82c	-0.0470659
122	0x3d0371be	0.032090895
123	0x3c770b05	0.015078311
124	0x3cdd7f6b	0.027038297
125	0x3d0357f4	0.0320663
126	0xbe047396	-0.12934718
127	0x3d6605f9	0.05615804
128	0xbc8239c4	-0.015896685
129	0xbce33eb5	-0.027739862
130	0x3e0d8b3d	0.13822646
131	0xbd042cd9	-0.032269333
132	0x3cde920c	0.02716925
133	0x3cbf9e26	0.02339084
134	0xbd78c89f	-0.060738202
135	0xbda19208	-0.078891814
136	0x3d1611cc	0.036638066
137	0x3d3de01d	0.04635631
138	0x3d6a6ff4	0.057235673
139	0xbda74d6d	-0.08169065
140	0x3d955447	0.07291465
141	0xbe0f9d34	-0.14024812
142	0x3e0731c3	0.13202576
143	0xbd94b2b6	-0.07260649
144	0x3d834516	0.064096615
145	0xbde498a5	-0.11161927
146	0x3dc225df	0.094798796
147	0xbc85571b	-0.016276887
148	0x3da60a6f	0.08107459
149	0x3aacd71d	0.0013186667
150	0xbc8e47fc	-0.01736831
151	0xbd32f007	-0.04368594
152	0xbb29d81c	-0.0025916165
153	0xbc8496a3	-0.01618511
154	0xbc842148	-0.016129151
155	0x3d89009f	0.066895716
156	0xbd4d3c70	-0.050106466
157	0xbd8453f4	-0.06461325
158	0xbd1f8232	-0.038942523
159	0x3d66822d	0.05627649
160	0x3d724fd0	0.059158146
161	0x3cb19e66	0.021681976
162	0x3b7494ca	0.003732013
163	0x3d6f8936	0.058480464
164	0x3d2a6839	0.0416033
165	0xbd7cd0d4	-0.06172259
166	0x3d8c5551	0.0685221
167	0x3c0e36ef	0.008680089
168	0xbc4ab5d4	-0.012372453
169	0x3d4d4f1d	0.050124276
170	0xbdb64e64	-0.089016706
171	0x3d1fbb7f	0.03899717
172	0xbc180942	-0.009279551
173	0x3d87cff6	0.06631462
174	0x3d80591a	0.06266995
175	0xbd9ab5ac	-0.075541824
176	0xbd81237a	-0.06305595
177	0x3c65530b	0.01399685
178	0x3d79e9b5	0.061013896
179	0xbd0596b4	-0.032614425
180	0xbd350971	-0.044198457
181	0xbb2b34cd	-0.0026124
182	0xbb0d37e3	-0.0021548204
183	0xbbe9cec1	-0.0071352427
184	0xbd7b0042	-0.061279543
185	0xbd4f1fbe	-0.05056738
186	0xbcac6e1a	-0.021048594
187	0x3cb91064	0.022590823
188	0xbdc5b138	-0.096529424
189	0x3dc00b60	0.093771696
190	0x3d48933f	0.04896855
191	0xbdde9ea2	-0.108701006
192	0x3d1e7d62	0.038693793
193	0xbda7769d	-0.081769206
194	0x3cb1db2c	0.021710955
195	0x3d0efed2	0.034910984
196	0xbdb907ed	-0.09034715
197	0x3dadf70b	0.08494385
198	0xbd61db73	-0.055140924
199	0x3b98c2bb	0.0046618856
200	0xbd071972	-0.03298325
201	0xbd78594f	-0.060632046
202	0xbc137397	-0.008999727
203	0x3d1b6978	0.03794238
204	0x3d79cfdc	0.060989246
205	0xbc727f64	-0.01480088
206	0xbd9363f5	-0.071968
207	0xbcb8688f	-0.022510795
208	0x3e1beeb9	0.15227784
209	0x3cc641b8	0.024201259
210	0xbd42aa9e	-0.047525994
211	0x3d5e0265	0.054201502
212	0xbdb8009a	-0.0898449
213	0x3d4db3fd	0.05022048
214	0x3d018827	0.031623986
215	0x3d6de6dd	0.058081497
216	0xbd0b0674	-0.0339417
217	0x3c0a9157	0.008457503
218	0xbca6affb	-0.020347586
219	0xbdc6cb2b	-0.0970672
220	0xbdc5c730	-0.096571326
221	0x3d9e1e93	0.07720675
222	0x3ccbbdae	0.02487072
223	0x3caccb32	0.021092985
224	0x3d18d0d6	0.037308536
225	0xbc80aca5	-0.015707323
226	0x3d1031de	0.035203807
227	0xbc0b2bcc	-0.008494329
228	0xbcbdd6c9	-0.023173707
229	0xbd866554	-0.065622956
230	0xbdbe9cc1	-0.09307242
231	0xbd949059	-0.07254095
232	0xbd915165	-0.07095603
233	0xbc0da412	-0.008645074
234	0xbd1b8796	-0.0379711
235	0xbcce0995	-0.025151053
236	0xbdcf3794	-0.101180226
237	0xbdc2cee0	-0.095121145
238	0xbd092c1e	-0.03348934
239	0x3daf8351	0.085699685
240	0x3be994e3	0.0071283444
241	0x3cafbbcc	0.021451853
242	0xbd60addc	-0.054853305
243	0x3d6730d9	0.05644307
244	0xbd163b29	-0.036677513
245	0x3d497cb4	0.04919119
246	0x3db8ef70	0.09030044
247	0xbc9c215b	-0.019058874
248	0x3c529e68	0.01285515
249	0xbd0553af	-0.03255051
250	0xbde58265	-0.112065114
251	0x3d369838	0.04457876
252	0x3ddcd8fa	0.107835725
253	0x3d1f10b0	0.038834274
254	0x3e0aac61	0.1354232
255	0xbda3955c	-0.079874724
