model/eeg_cnn.pth (torch, 161605 bytes, 24 tensors)

bn1.weight f4 [14]
0	0x3fe4d496	1.7877376
1	0x3fe9ae20	1.8256264
2	0x3ff1dcd7	1.889552
3	0x3fb136ab	1.3844808
4	0x3f5db71e	0.8660754
5	0x3f9c611b	1.2217134
6	0x3fd515ab	1.6647238
7	0x3fd321d7	1.6494702
8	0x3f866f0c	1.0502639
9	0x3f7a583f	0.977909
10	0x3fbe9582	1.4889376
11	0x3f2cc7c0	0.67492294
12	0x3fcf331e	1.6187475
13	0x3fe1cd0a	1.7640698

bn1.bias f4 [14]
0	0xbe2758a7	-0.16342412
1	0xbe3f9377	-0.18708597
2	0xbe1d17b6	-0.15341076
3	0x3c605fe9	0.013694742
4	0xbd13089e	-0.03589689
5	0xbdd9b480	-0.10630131
6	0xbdaff7f3	-0.085922144
7	0xbd7ba9fd	-0.06144141
8	0x3d15af6a	0.03654424
9	0x39be4b0e	0.00036295544
10	0xbd10b8fe	-0.035332672
11	0x3c987f0c	0.018615268
12	0xbd6917e5	-0.056907553
13	0xbe093803	-0.13400273

bn1.running_mean f4 [14]
0	0x4583f802	4223.001
1	0x4583d131	4218.149
2	0x4583e722	4220.8916
3	0x45841978	4227.1836
4	0x45842890	4229.0703
5	0x4584227d	4228.311
6	0x4583ecb4	4221.588
7	0x4583e2ef	4220.3667
8	0x4583af75	4213.932
9	0x45844749	4232.9106
10	0x45840e75	4225.807
11	0x4584119c	4226.201
12	0x45840941	4225.1567
13	0x45840abb	4225.3413

bn1.running_var f4 [14]
0	0x4618a508	9769.258
1	0x465dc2e0	14192.719
2	0x46a1f069	20728.205
3	0x46940785	18947.76
4	0x428e786e	71.235214
5	0x43e7145c	462.15906
6	0x46ce9279	26441.236
7	0x46d934d3	27802.412
8	0x475f8f4b	57231.293
9	0x415bc79f	13.736236
10	0x45dcbd88	7063.6914
11	0x4760f618	57590.094
12	0x468b7cbf	17854.373
13	0x46367454	11677.082

conv1.weight f4 [32, 1, 1, 4]
0	0xbdae9420	-0.08524346
1	0x3ed35b41	0.4128056
2	0xbed342b2	-0.41261822
3	0x3f1e8b90	0.61931705
4	0x3ea065cc	0.31327665
5	0x3da88e30	0.08230245
6	0x3ed52377	0.4162862
7	0xbe1eeb76	-0.15519509
8	0xbed8b2f8	-0.42324042
9	0x3f113f5b	0.567373
10	0xbee627f3	-0.44952354
11	0xbdeffb5c	-0.11717865
12	0xbe945191	-0.2896848
13	0x3f397213	0.7243969
14	0xbeef3222	-0.46717936
15	0xbed196ff	-0.40935513
16	0xbec1777d	-0.37786475
17	0xbed6262c	-0.41825998
18	0x3e871ab9	0.26387575
19	0x3d9035bb	0.07041498
20	0x3cd436b7	0.025904996
21	0x3e4f2358	0.20228326
22	0xbcb8b9b5	-0.02254949
23	0x3e9227a8	0.2854588
24	0xbf2867b5	-0.65783244
25	0x3f75a1d6	0.9595007
26	0xbf40b998	-0.75283194
27	0x3eabfb1b	0.33590016
28	0xbefb860d	-0.4912571
29	0xbea7eb94	-0.3279692
30	0x3f212cc8	0.62958956
31	0x3ef42e19	0.4769142
32	0x3c77ed00	0.015132189
33	0xbe74e3b4	-0.23914987
34	0xbee97b66	-0.45601958
35	0x3f3b227c	0.73099494
36	0x3f16e71f	0.5894641
37	0x3dca5ce8	0.09881002
38	0x3f147ed8	0.5800605
39	0xbf84ba64	-1.0369382
40	0xbc23c889	-0.009996542
41	0x3f36b108	0.7136388
42	0xbf254a30	-0.64566326
43	0x3e964818	0.29351878
44	0xbda30bc6	-0.0796123
45	0xbe0f9311	-0.14020945
46	0xbefe9bdb	-0.49728283
47	0xbd5a7e91	-0.05334336
48	0x3f24825b	0.64261407
49	0xbed9f3da	-0.42568856
50	0xbe7f7a64	-0.24949032
51	0x3ee1db6e	0.44112724
52	0xbebd7ee1	-0.37010863
53	0xbeba81e6	-0.3642723
54	0xbc983d9e	-0.018584069
55	0x3ed5bc3d	0.41745177
56	0xbf2501a0	-0.64455605
57	0x3ea264f3	0.31717643
58	0x3f393830	0.7235136
59	0xbe289aac	-0.16465253
60	0x3e468f53	0.19390611
61	0x3efdbbfa	0.49557477
62	0x3ed3ccb7	0.41367123
63	0xbdf9836a	-0.12183268
64	0xbf16cb45	-0.58903915
65	0x3e9df061	0.30847457
66	0x3ed71eb8	0.42015624
67	0xbf019b7d	-0.5062788
68	0xbec5d9df	-0.38642785
69	0xbede18a5	-0.43378177
70	0x3e371f4c	0.17883033
71	0x3ea57196	0.32313222
72	0x3ec3b82f	0.38226458
73	0xbe51680c	-0.20449847
74	0xbf24f6ec	-0.6443927
75	0x3c729cce	0.014807893
76	0x3f275df0	0.6537771
77	0x3f13003f	0.5742225
78	0xbf3ef3f5	-0.74591
79	0xbed2126d	-0.41029683
80	0xbe2d5890	-0.16928315
81	0x3ee697b5	0.45037618
82	0x3f0f798a	0.5604483
83	0xbf1368e1	-0.5758191
84	0xbdbd923a	-0.09256406
85	0xbedb1832	-0.42791897
86	0x3efc557a	0.49283963
87	0x3f0c1adc	0.54728484
88	0x3e3f1486	0.18660173
89	0x3ecb701c	0.3973397
90	0x3e3a18ce	0.18173525
91	0x3d8e9aa8	0.06963092
92	0x3f2ddc66	0.67914426
93	0xbe2ec101	-0.17065813
94	0xbf0126f2	-0.5045005
95	0xbe897193	-0.26844463
96	0x3e9592a0	0.29213428
97	0xbeb26494	-0.3484236
98	0xbda51847	-0.08061271
99	0xbeaed43c	-0.34146297
100	0x3d6f1d8d	0.05837779
101	0x3f3c11de	0.73464763
102	0xbf13cff1	-0.5773917
103	0xbe1a3834	-0.15060502
104	0x3f299513	0.66243094
105	0xbf90fc80	-1.1327057
106	0x3d4ff656	0.050772034
107	0x3e98d167	0.2984726
108	0xbee75c27	-0.45187494
109	0x3ef8469a	0.48491365
110	0x3eaa446f	0.33255336
111	0x3e3a29cf	0.18180011
112	0x3f3515e9	0.7073656
113	0xbf6812ce	-0.90653694
114	0x3f14f5a9	0.5818735
115	0xbe59bc8d	-0.21263333
116	0x3e72ffa6	0.23730335
117	0x3eb31bc6	0.34982127
118	0xbe5fe6d3	-0.21865396
119	0x3eb3feed	0.3515543
120	0xbdeb2d5c	-0.11483261
121	0x3e0eadad	0.1393344
122	0x3f43d6fb	0.7649991
123	0xbd0d1653	-0.03444512
124	0x3f1eadd1	0.6198397
125	0xbf65e24b	-0.8979842
126	0xbbc52d67	-0.0060173753
127	0x3e7ef9a2	0.24899915

conv1.bias f4 [32]
0	0xbe9bc6f3	-0.30425224
1	0xbd406541	-0.046971563
2	0xbd6158e1	-0.055016402
3	0xbf255c6a	-0.6459414
4	0xbdbae2ba	-0.09125276
5	0x3e062f92	0.13104084
6	0x3da87f47	0.08227401
7	0x3d3dc12f	0.046326812
8	0x3d4fa95b	0.05069862
9	0x3c63cda2	0.013904007
10	0x3ccc0376	0.024903994
11	0xbf44d73d	-0.7689093
12	0xbc8664d0	-0.016405493
13	0x3df2d1af	0.118564
14	0xbe754134	-0.23950654
15	0xbf7bc3f6	-0.9834589
16	0x3de70b50	0.112814546
17	0xbf0e6ff4	-0.55639577
18	0xbe2ced0c	-0.16887301
19	0xbbcbdb4c	-0.0062212106
20	0x3dd7cba3	0.105368875
21	0xbeaa6110	-0.33277178
22	0xbe9f2a97	-0.3108718
23	0x3ddcb5bb	0.1077685
24	0x3dec5520	0.11539674
25	0x3d9d2763	0.07673528
26	0x3d147d50	0.03625232
27	0xbcd6d564	-0.0262248
28	0x3d99b779	0.07505698
29	0xbe16d913	-0.14731245
30	0xbe83fa71	-0.2577701
31	0xbeeb7adb	-0.4599217

conv2.weight f4 [25, 32, 14, 1]
0	0xbab3da35	-0.0013721647
1	0xbd356ad3	-0.04429133
2	0xbcc301f6	-0.023804646
3	0xbd17e8e4	-0.037087336
4	0x3c216437	0.009850553
5	0x3d67d57b	0.056600075
6	0xbb4d0833	-0.0031285405
7	0x3cbbd312	0.022927795
8	0x3b29529f	0.00258366
9	0xbb09aae5	-0.0021006402
10	0x3db2519f	0.08706974
11	0x3d569148	0.052384645
12	0xbccb7eb2	-0.024840686
13	0x3d352da9	0.044232998
14	0x3e14ae8b	0.14519708
15	0x3df05673	0.11735239
16	0x3c71b537	0.014752678
17	0xbc487e49	-0.01223714
18	0xbdf3f764	-0.119124204
19	0x3da4a568	0.08039361
20	0x3d66a6f7	0.056311574
21	0x3db39f0b	0.087705694
22	0xbd4b1339	-0.04957888
23	0xbcae2780	-0.02125907
24	0xbdd950a1	-0.10611082
25	0x3d00ae02	0.031415947
26	0x3d5129fb	0.051065426
27	0x3c9c07bb	0.019046655
28	0x3c957532	0.01824436
29	0x3b975843	0.004618676
30	0x3a2ba36d	0.00065474847
31	0x3b5ebef4	0.0033988329
32	0x3e173fc7	0.14770423
33	0x3ca42453	0.020036852
34	0x3d55c744	0.052191988
35	0xbcffdabb	-0.031232229
36	0xbbe9d09c	-0.007135464
37	0xbc63be1b	-0.013900305
38	0xbc497101	-0.012295009
39	0xbb957445	-0.0045609795
40	0x3d0b0703	0.033942234
41	0xb8c4e492	-9.388583e-05
42	0xbbc350f7	-0.0059605795
43	0x3b262433	0.0025351166
44	0x3d017bcf	0.031612214
45	0xbdf7966c	-0.120892376
46	0xbd3bfc66	-0.045895003
47	0x3d149d0f	0.036282595
48	0x3d3d05a5	0.04614796
49	0xbd2fc2ae	-0.04291027
50	0x3ce7d820	0.028301299
51	0xbd8a5374	-0.06754199
52	0xbd854670	-0.065075755
53	0x3cf60d4a	0.030035634
54	0xbb9050b7	-0.004404153
55	0xbdbfb8c5	-0.09361414
56	0xbb599f3f	-0.003320649
57	0x3d5097a5	0.05092587
58	0xbd580ff9	-0.052749608
59	0x3d0eeecb	0.0348957
60	0x3ddf6bae	0.1090921
61	0x3e4e9662	0.20174554
62	0x3d9cba3d	0.0765271
63	0xbcbe324c	-0.023217343
64	0xbd1d255d	-0.03836571
65	0x3e1e485e	0.15457293
66	0x3d6bb450	0.057545006
67	0x3c318a70	0.010836229
68	0x3da3c7b2	0.07997073
69	0x3ceb1c2d	0.028699959
70	0x3d840fbb	0.06448313
71	0xbd34bc97	-0.044125166
72	0xbd5f2adc	-0.054484233
73	0xbd9c1f27	-0.07623129
74	0xbcad7c0c	-0.021177314
75	0x3dafa408	0.08576208
76	0x3e062b51	0.13102461
77	0xbba6e44a	-0.005093132
78	0xbd31622b	-0.04330651
79	0x3cf14fdb	0.029457023
80	0xbd9323c0	-0.07184553
81	0xbc35d25c	-0.011097517
82	0x3bcc20ea	0.0062295096
83	0xbdea5c9c	-0.11443445
84	0x3d5719ef	0.052514967
85	0xbd980c67	-0.074242406
86	0x3b08feac	0.002090375
87	0x3d82184e	0.06352292
88	0x3d842d7d	0.06453989
89	0xbd4b08c3	-0.049568903
90	0xbd8d2f6e	-0.06893812
91	0x3cd5a490	0.026079446
92	0x3cafd002	0.02146149
93	0xbcac1a17	-0.021008534
94	0x3e2de377	0.16981302
95	0xbc4fbf5c	-0.012679901
96	0xbc9c915e	-0.019112285
97	0xbc8dc752	-0.017306957
98	0xbc6d7ed1	-0.014495567
99	0x3cb22d89	0.021750228
100	0x3afcf855	0.0019300083
101	0xbdba5aff	-0.090993874
102	0xbd7aa5c8	-0.061193258
103	0xbc124332	-0.008927153
104	0x3dc48543	0.0959573
105	0xbd048b4f	-0.032359418
106	0xbd850a20	-0.06496072
107	0xbda901b0	-0.08252275
108	0xbe21a5d1	-0.1578591
109	0xbbea8706	-0.0071572093
110	0xbb7d247f	-0.003862649
111	0xbcfda244	-0.030961163
112	0xbd282de2	-0.041059382
113	0xbc90cc21	-0.017675461
114	0x393f6a7c	0.00018254848
115	0xbc51c2ef	-0.012802823
116	0xbb88e225	-0.004177349
117	0xbcc469dc	-0.023976259
118	0xba5cd1c1	-0.000842359
119	0x374edd19	1.2330035e-05
120	0xbdbc3e85	-0.09191612
121	0xbdffd2bb	-0.124913655
122	0x3db6439a	0.08899613
123	0x3c4e5b73	0.012595045
124	0x3c9de177	0.01927255
125	0xbda7cb7f	-0.08193111
126	0xbc88a6da	-0.016681124
127	0x3c2f7acb	0.0107104285
128	0x3d7a3c5d	0.061092723
129	0xbcbdf1b1	-0.023186537
130	0xbe3cce86	-0.18438157
131	0xbdb70a27	-0.08937483
132	0x3d1e0e06	0.038587593
133	0xbe108642	-0.14113715
134	0xbe372d59	-0.17888393
135	0xbce699c1	-0.028149487
136	0xbdd3633a	-0.1032166
137	0x3cd31f9e	0.025771912
138	0x3cfef94e	0.031124737
139	0xbdb59225	-0.088657655
140	0x3db550cc	0.088533014
141	0xbdaeede2	-0.08541466
142	0xbcccdecb	-0.02500858
143	0x3d9c1a6e	0.076222286
144	0x3d30d25c	0.043169364
145	0x3e32abb5	0.17448314
146	0xbbc5a810	-0.0060319975
147	0x3bb1bae9	0.0054238928
148	0x3c10c757	0.008836589
149	0x3d9613d7	0.07328003
150	0x3da07066	0.07833938
151	0xbce10556	-0.027468365
152	0x3d1e71b4	0.038682655
153	0xbe043981	-0.12912561
154	0xbcbec115	-0.023285428
155	0x3aee5f10	0.001818629
156	0x3cfb0a86	0.030644666
157	0xbdb941f9	-0.090457864
158	0x3d712d63	0.058881175
159	0x3db0dc39	0.08635754
160	0x3ca2a5f6	0.019854527
161	0xbd4f6ed2	-0.050642796
162	0x3db9101c	0.09036276
163	0x3de7afc9	0.11312825
164	0xbda005f0	-0.078136325
165	0x3cf1d48e	0.0295203
166	0xbd0cfcaa	-0.034420647
167	0xbd5c2877	-0.053749528
168	0x3de65211	0.11246122
169	0x3cd39c1d	0.025831277
170	0xbcd03a0c	-0.025418304
171	0xbca025ef	-0.019549338
172	0xbcc26246	-0.023728501
173	0x3e05adc4	0.13054568
174	0x3d8516b1	0.06498469
175	0x3db27027	0.087127976
176	0xbbca042b	-0.0061650476
177	0xbd99b445	-0.07505087
178	0xbc4d9c05	-0.012549405
179	0xbce9f625	-0.028559754
180	0x3d06d048	0.032913476
181	0xbe093896	-0.13400492
182	0xbe0caaec	-0.13737077
183	0x3da6d6c2	0.081464306
184	0xbdc3339b	-0.09531327
185	0xbd294207	-0.041322734
186	0xbdbc00f4	-0.09179869
187	0x3da9f2e0	0.08298278
188	0xbdde8da9	-0.10866863
189	0xbcf7ff88	-0.030273214
190	0x3cb969bb	0.022633424
191	0x3d81fcf4	0.06347075
192	0x3d01df4c	0.031707093
193	0xbd27eba1	-0.040996198
194	0x3cb4ad1e	0.022055205
195	0x3d9d7f4c	0.076902956
196	0xbcf715cf	-0.030161766
197	0xbca2aeec	-0.0198588
198	0x3cace296	0.021104138
199	0xbd39a002	-0.04531861
200	0x3da0e68b	0.078564726
201	0xbdaca609	-0.08430106
202	0x3ccbc3d3	0.02487365
203	0x3cdaebd8	0.026723787
204	0x3d7d55f9	0.061849568
205	0xbd3ca27d	-0.0460534
206	0x3c4964bd	0.012292084
207	0xbc612e1a	-0.013743902
208	0x3dabda75	0.08391277
209	0x3cb5fc39	0.022214996
210	0xbda4b22f	-0.08041798
211	0xbc1eb4c5	-0.0096866535
212	0x3c1fe095	0.009758134
213	0xbc983895	-0.018581668
214	0xbd956f47	-0.07296615
215	0xbe57c895	-0.2107261
216	0xbd5ca8fa	-0.053872086
217	0xbce7ed53	-0.028311407
218	0x3d867974	0.06566134
219	0xbdcf9ea9	-0.10137684
220	0x3d947ea9	0.07250721
221	0x3c54f740	0.012998402
222	0xbdcf8eb8	-0.10134643
223	0x3e17d6b1	0.14827992
224	0x3cb7558d	0.022379661
225	0x3d87ab12	0.06624426
226	0x3c2586a6	0.0101029035
227	0x3d75aba9	0.05997816
228	0x3d463f88	0.048400432
229	0x3cb73c1f	0.022367535
230	0xbda8cdc5	-0.082423724
231	0x3b434417	0.0029795223
232	0xbd0fefd2	-0.03514082
233	0x3d9a15ba	0.07523675
234	0x3dec0be1	0.11525703
235	0xbd0d75c9	-0.034536157
236	0x3c55fa0c	0.013060104
237	0x3d997473	0.07492914
238	0x3d2aedb9	0.041730616
239	0xbd55322d	-0.052049804
240	0x3cfc369c	0.030787759
241	0xbd910fd1	-0.07083095
242	0x3e1290b6	0.14313015
243	0x3d7a7a0f	0.06115156
244	0xbd50e026	-0.050995015
245	0x3c1f5990	0.009725943
246	0x3d4de5a9	0.05026785
247	0x3e58ed66	0.2118431
248	0xb957fc33	-0.0002059795
249	0x3d01dd3c	0.031705126
250	0xbd95921f	-0.07303261
251	0xba94f180	-0.0011363477
252	0x3d653e3d	0.05596756
253	0xbd2ac75c	-0.04169403
254	0x3d29dd75	0.041470964
255	0xbc1b4675	-0.0094772475

conv2.bias f4 [25]
0	0xbe5ad964	-0.2137199
1	0x3e398217	0.18116032
2	0x3e2a2c4d	0.16618462
3	0x3af63362	0.0018783624
4	0xbc11da0c	-0.008902084
5	0x3e7a963a	0.2447137
6	0x3df9a0e4	0.121888906
7	0x3e5438e7	0.20724832
8	0x3d0a69de	0.03379237
9	0x3e521ea1	0.20519497
10	0x3dad9c4b	0.08477076
11	0x3e2430b2	0.16034201
12	0x3e0e5236	0.13898548
13	0x3dd9f41e	0.10642265
14	0x3df511a1	0.11966253
15	0xbd14eb34	-0.03635712
16	0x3e43294e	0.19058725
17	0x3e60c01c	0.21948284
18	0x3e0ca045	0.13733013
19	0xbcedc4e5	-0.02902455
20	0x3e4fe991	0.20303942
21	0xbd4f606c	-0.050629064
22	0xbaf7e698	-0.0018913327
23	0xbe150d5d	-0.14555879
24	0xbb2f0203	-0.002670408

conv3.weight f4 [50, 1, 4, 25]
0	0xbd161716	-0.03664311
1	0x3da49609	0.080364294
2	0xbdb15aab	-0.08659872
3	0x3d3fb463	0.04680289
4	0x3d973a9f	0.07384228
5	0xbc97c368	-0.018525794
6	0x3dff9642	0.12479831
7	0x3d846799	0.06465072
8	0x3c90aee8	0.017661527
9	0xbbaabc08	-0.0052104034
10	0xbd290ca1	-0.04127181
11	0xba9d8b84	-0.0012019728
12	0x3d052c8e	0.032513194
13	0xbd8ba98b	-0.06819447
14	0x3d470813	0.048591685
15	0xbe000203	-0.12500767
16	0xbd3f0687	-0.046637084
17	0x3bebf01c	0.007200254
18	0x3d8dbef5	0.06921188
19	0xbda4a890	-0.08039963
20	0xbde30393	-0.11084666
21	0xbe06a32b	-0.13148181
22	0x3daebbef	0.08531939
23	0x3cbce564	0.0230586
24	0x3ce3a167	0.027786924
25	0x3b849db0	0.004047118
26	0x3c20b433	0.009808588
27	0xbdf2a6ce	-0.11848222
28	0x3c936615	0.017993012
29	0x3d187fb7	0.037231173
30	0xbd8c868a	-0.06861599
31	0x3e28e3e9	0.16493191
32	0xbd8ec363	-0.06970861
33	0x3d380872	0.04492993
34	0xbc508f28	-0.012729444
35	0x3d372fe4	0.044723406
36	0x3a724975	0.00092425133
37	0xbd056004	-0.03256227
38	0xbe2f8094	-0.17138892
39	0xbdc9c2e2	-0.09851624
40	0xbdb6fa30	-0.08934438
41	0x3df9ec48	0.1220327
42	0xbccdb45b	-0.025110414
43	0xbd1700d0	-0.03686601
44	0xbddede1f	-0.1088221
45	0x3d5dcfc4	0.05415322
46	0xbe6f2f65	-0.23357923
47	0x3d6aafe4	0.05729665
48	0xbd01e13e	-0.03170895
49	0x3cdf4347	0.02725376
50	0xbd80af1c	-0.062833995
51	0xbe5f3273	-0.21796589
52	0xbe2ebc38	-0.17063987
53	0xbd25b311	-0.040453974
54	0x3de64dde	0.11245321
55	0xbd33c4b7	-0.043888774
56	0x3d02d639	0.03194258
57	0xbdd925dc	-0.10602924
58	0xbc75aec3	-0.01499528
59	0xbdcbd97c	-0.09953591
60	0xbd9675e2	-0.07346703
61	0x3e2dfacb	0.16990201
62	0x3d7f837a	0.062381245
63	0xbd477f15	-0.04870518
64	0x3dec00de	0.11523603
65	0x3e1334fa	0.14375678
66	0x3dd23fed	0.10266099
67	0x3e594f89	0.21221747
68	0xbd61bda7	-0.055112507
69	0xbd9e2207	-0.07721334
70	0x3e12fa29	0.14353241
71	0xbe09b701	-0.13448717
72	0x3de9f99c	0.11424562
73	0xbd6aab8a	-0.0572925
74	0x3de19a02	0.11015703
75	0xbde9c36e	-0.114142284
76	0xbd9bada5	-0.076014794
77	0x3e51d62e	0.2049186
78	0x3c52e3a4	0.012871657
79	0xbde84850	-0.113419175
80	0xbd875343	-0.06607678
81	0xbd877e0c	-0.066158384
82	0xbe5161d9	-0.20447482
83	0xbd8a428e	-0.067509755
84	0xbe9a00ea	-0.30078822
85	0xbe28265d	-0.16420884
86	0x3d06fd62	0.03295649
87	0xbdeb5206	-0.11490254
88	0xbe258457	-0.16163765
89	0x3df686d6	0.12037437
90	0x3d7785e3	0.06043042
91	0x3df8fd97	0.121577434
92	0xbe4a216e	-0.19739315
93	0x3d830ae3	0.06398561
94	0xbe1e8486	-0.15480241
95	0x3e25a875	0.16177543
96	0xbd348814	-0.044075087
97	0xbe14e551	-0.14540602
98	0xbcdcf822	-0.026973788
99	0xbd5b59c5	-0.053552408
100	0xbc6ce748	-0.014459439
101	0x3bd2af46	0.0064295856
102	0x3c45134b	0.012028526
103	0xbdf3bd6e	-0.11901365
104	0xbd0aa56e	-0.033849172
105	0x3e2743e4	0.16334492
106	0xbda79ec6	-0.081845805
107	0x3dbc9b38	0.09209293
108	0x3e8de764	0.277156
109	0xbe194630	-0.1496818
110	0x3e351aef	0.17686056
111	0xbdcbf216	-0.099582836
112	0xbdb59c6e	-0.08867727
113	0xbd2d962f	-0.042379554
114	0x3dc3a9a7	0.09553843
115	0x3bdae15a	0.006679696
116	0xbdaf4295	-0.085576214
117	0x3d416937	0.04721948
118	0x3d888b17	0.06667154
119	0x3df684dc	0.1203706
120	0x3de8dfba	0.113707975
121	0xbd9ec9c3	-0.07753327
122	0xbd0eea6b	-0.034891527
123	0xbd8d6f9e	-0.06906055
124	0xbc491e0b	-0.012275229
125	0x3c86ce14	0.016455688
126	0xbd0cd237	-0.034380164
127	0x3b26bafd	0.0025441044
128	0x3c9cb367	0.019128514
129	0xbe52c8c2	-0.20584396
130	0x3dd0c455	0.10193697
131	0xbd9ceb15	-0.07662026
132	0x3e2ac2c5	0.16675861
133	0x3e214e01	0.15752412
134	0xbe493e24	-0.19652611
135	0x3d9fb65b	0.077984534
136	0xbe8173da	-0.252837
137	0xbcfc7552	-0.030817661
138	0x3dd7fa0a	0.10545738
139	0x3e08b151	0.13348891
140	0xbe1aac75	-0.1510485
141	0xbe287e9b	-0.16454546
142	0xbdc01900	-0.09379768
143	0x3db86a2b	0.09004625
144	0xbc93103d	-0.017952079
145	0x3d027754	0.03185208
146	0x39dd05e8	0.00042156805
147	0x3d7970de	0.060898654
148	0xbde097bf	-0.10966443
149	0x3c43c77b	0.011949415
150	0xbd74ff68	-0.059813887
151	0xbda783e9	-0.08179457
152	0x3e3f31cd	0.18671341
153	0xbcc9e214	-0.024643935
154	0xbc991cea	-0.018690545
155	0xbdd3e927	-0.10347205
156	0x3ca9cb78	0.020726904
157	0x3e7fbc4c	0.24974173
158	0x3e0d5b69	0.13804401
159	0xbe365b50	-0.1780827
160	0xbdbd27bf	-0.092360966
161	0x3d0b5262	0.034014113
162	0x3cf0f5af	0.029414026
163	0xbc917bad	-0.017759169
164	0x3e72e9eb	0.23722045
165	0xbdd6e7ab	-0.10493406
166	0xbe6a0496	-0.22853312
167	0x3d8f5dde	0.070003256
168	0xbd76e0bf	-0.06027293
169	0xbb851733	-0.0040616035
170	0xbc4d2993	-0.012522119
171	0x3e0dace0	0.13835478
172	0xbda7827b	-0.08179184
173	0xbe3794b2	-0.17927817
174	0x3bfd0a1c	0.0077221524
175	0xbd872304	-0.065984756
176	0xbe0269c2	-0.12735656
177	0x3e142d30	0.14470363
178	0xbc8aaf24	-0.016929217
179	0xbe0bfeb6	-0.13671383
180	0xbd926317	-0.07147806
181	0xbd3ba879	-0.045814965
182	0xbe627f50	-0.22118878
183	0x3d209d92	0.03921277
184	0xbdd31382	-0.10306455
185	0x3deb7649	0.114971705
186	0xbd3d8a6f	-0.0462746
187	0xbdb40b67	-0.08791237
188	0xbe2bc7e7	-0.16775475
189	0x3e488959	0.19583644
190	0x3d84fe70	0.064938426
191	0xbdbc84ac	-0.09204993
192	0x3d0d4274	0.034487203
193	0xbd2c4a26	-0.0420629
194	0x3d402871	0.046913568
195	0xbd5c7162	-0.053819068
196	0xbdb47cc9	-0.088128634
197	0xbdb2271e	-0.08698867
198	0x3e337d35	0.17528231
199	0xbcd9ba39	-0.026578056
200	0xbda08fc0	-0.07839918
201	0x3e01eba5	0.12687548
202	0xbd0b1592	-0.033956118
203	0xbe133a4c	-0.14377707
204	0xbcc60fb8	-0.024177417
205	0x3d6e7ca8	0.05822435
206	0xbd4b9fb4	-0.04971285
207	0x3c44db8e	0.012015237
208	0x3c97eef3	0.018546557
209	0x3d616f42	0.055037744
210	0xbceb3033	-0.028709507
211	0x3d171f91	0.03689534
212	0x3e2612a9	0.16218056
213	0x3c4a1071	0.0123330215
214	0xbd9236f0	-0.07139385
215	0xbd519449	-0.051166806
216	0xbe607416	-0.21919283
217	0xbd8acf67	-0.0677784
218	0xbd744810	-0.059639037
219	0xbc539f71	-0.012916432
220	0x3d9d1083	0.07669165
221	0x3cbc72e7	0.023004008
222	0x3c21b4d3	0.009869772
223	0x3e5b8b72	0.21439913
224	0xbcb37e8e	-0.021910932
225	0xbd8159b4	-0.06315938
226	0x3e05d459	0.13069285
227	0x3d12de07	0.035856273
228	0xbdcde85c	-0.10054085
229	0xbe0649c6	-0.1311408
230	0xbd1aeab0	-0.03782147
231	0x3e06039a	0.13087311
232	0x3e4e8f1c	0.2017178
233	0xbd448a72	-0.047983594
234	0xbe0d2850	-0.13784909
235	0xbea49217	-0.32142708
236	0x3e148c4b	0.14506643
237	0x3bbc9a11	0.005755671
238	0x3e22be87	0.15892993
239	0xbe39da79	-0.18149747
240	0xbdfb75c6	-0.12278323
241	0xbe24d8fa	-0.16098395
242	0xbd8ccadf	-0.06874632
243	0xbbdd3924	-0.0067511965
244	0xbd2a8a03	-0.041635524
245	0xbd0df6ed	-0.034659315
246	0xbe54a856	-0.2076734
247	0xbdd68a97	-0.10475653
248	0x3d2e28fb	0.04251955
249	0x3d18db90	0.037318766
250	0xbcba230a	-0.022721786
251	0x3e0af24c	0.13568991
252	0x3d929fe6	0.071594045
253	0xbe3b3eb3	-0.18285637
254	0xbe73df41	-0.23815633
255	0xbc4ef156	-0.012630781

conv3.bias f4 [50]
0	0x3e94a525	0.29032245
1	0xbd80d6de	-0.06290983
2	0x3e2d2b51	0.16911055
3	0x3e58cae6	0.2117115
4	0xbab23df8	-0.001359879
5	0x3af30eac	0.0018543801
6	0xbe511674	-0.20418721
7	0xbcc47431	-0.023981186
8	0x3d59e719	0.053198908
9	0xbe35ea7b	-0.17765228
10	0x3e9ee4a1	0.31033805
11	0x3e45111c	0.19244808
12	0x3e41de36	0.18932423
13	0xbe7471df	-0.23871563
14	0x3ddee020	0.10882592
15	0x3e82e84e	0.2556786
16	0x3df971df	0.12179922
17	0x3d40d0a5	0.04707398
18	0x3e033d71	0.12816407
19	0xbe004399	-0.12525786
20	0x3bf713bd	0.007540195
21	0x3e9b01e6	0.30274886
22	0xbd7b070a	-0.06128601
23	0x3e6a0262	0.22852471
24	0x3d7be3e3	0.061496627
25	0xbdcca057	-0.0999152
26	0x3cb7f9a4	0.022457905
27	0xbe17707c	-0.14789003
28	0x3c26e97a	0.010187501
29	0xbc1dfe0d	-0.00964309
30	0xbe292f0f	-0.16521858
31	0xbe15aff6	-0.14617905
32	0x3d89b030	0.06723058
33	0x3dca14f5	0.098672785
34	0xbbeee7bb	-0.007290808
35	0x3d3de6ea	0.046362795
36	0xbd528b35	-0.05140229
37	0x3e49ddcb	0.19713514
38	0x3d955b8e	0.07292853
39	0xbcfe15ae	-0.031016197
40	0x3e0245d2	0.12721947
41	0x3e35d0cc	0.17755431
42	0xbdd03201	-0.101657875
43	0xbe06cc83	-0.13163953
44	0xbdf56662	-0.119824186
45	0xbe8481ea	-0.25880367
46	0xbd94ec79	-0.07271666
47	0x3e33ba44	0.17551523
48	0x3e11dfd6	0.14245543
49	0xbcdba703	-0.026813036

conv4.weight f4 [100, 1, 50, 2]
0	0x3c844e52	0.016150627
1	0xbc7bc6b0	-0.015367195
2	0x3e06ee8a	0.13176933
3	0x3c1ef991	0.009703056
4	0x3d6be8a4	0.05759491
5	0x3d9a5681	0.075360306
6	0xbd08bc23	-0.033382546
7	0xbcc33ce6	-0.02383275
8	0x3cfa1c05	0.030530939
9	0xb89f692d	-7.601301e-05
10	0xbd3ab219	-0.045580003
11	0x3c238c3f	0.009982168
12	0x3d349b4a	0.044093408
13	0x3e1d3150	0.15350842
14	0x3d4700e9	0.048584852
15	0x3c451142	0.01202804
16	0x3d4842cc	0.048891827
17	0xbbdcf26b	-0.0067427657
18	0xbc5c3621	-0.01344064
19	0xbd623695	-0.055227835
20	0xbc8f2232	-0.01747236
21	0x3cdebf76	0.027190905
22	0xbbb121d5	-0.0054056444
23	0xbd2d5d3b	-0.04232524
24	0x3db352ac	0.08756003
25	0x3e15d564	0.14632183
26	0xbdc8e144	-0.09808591
27	0xbc1f9317	-0.009739659
28	0xbbb51e7c	-0.0055273157
29	0xbd715726	-0.058921
30	0x3dba4967	0.09096032
31	0x3ddca207	0.10773092
32	0x3dbcecf7	0.09224885
33	0x3e0dcde9	0.1384808
34	0x3c818347	0.015809668
35	0x3be59657	0.0070064473
36	0x3d918e0f	0.07107174
37	0x3cb85066	0.022499274
38	0xbcaf4970	-0.021397322
39	0xbad3130f	-0.0016103702
40	0x3dae4266	0.08508758
41	0x3dd1cbb0	0.102439284
42	0xbc6cf1f2	-0.014461981
43	0x3d164e8d	0.036696006
44	0xba9a0a73	-0.0011752382
45	0xbd06c5f8	-0.03290364
46	0x3cffedad	0.031241262
47	0xbc75edaa	-0.015010277
48	0x3d746be3	0.0596732
49	0xbcce0f36	-0.025153738
50	0x3d31fdfa	0.0434551
51	0x3a9a15a6	0.0011755719
52	0xbd4ec1d6	-0.050477825
53	0xbdc55dd2	-0.096370354
54	0x3bc43b4f	0.0059885154
55	0x3daa075d	0.08302186
56	0xbce8031f	-0.0283218
57	0x3d7c71b4	0.061631873
58	0xbdd5e75f	-0.10444521
59	0x3c850f16	0.016242545
60	0xbda13663	-0.078717016
61	0xbe003664	-0.12520748
62	0xbcfb2e30	-0.030661672
63	0x3c8ab596	0.01693229
64	0x3d9afd34	0.07567826
65	0x3cdcdc13	0.026960408
66	0xbc800998	-0.015629575
67	0xbd10ce4c	-0.03535299
68	0x3d068f9d	0.032851804
69	0xbc20f898	-0.009824894
70	0x3ac23b27	0.0014818654
71	0x3c7b362a	0.015332738
72	0xbddf5377	-0.109045915
73	0xbccf3f04	-0.025298603
74	0xbd3fdf44	-0.046843782
75	0xbc6af74b	-0.014341186
76	0xbd5728aa	-0.052529015
77	0xbd7c75c7	-0.06163576
78	0x3cd92174	0.02650521
79	0x3c03844e	0.008027149
80	0x3d1018a3	0.035179745
81	0xbc884abd	-0.0166372
82	0xbdba0168	-0.090822995
83	0xbcce8985	-0.025212059
84	0x3c64672f	0.0139406165
85	0x3c4bdb8f	0.012442484
86	0x3d84dd17	0.06487482
87	0x3bb689d7	0.005570631
88	0xbe5ca21b	-0.21546213
89	0xbe5fa0b2	-0.21838644
90	0xbbd76fa5	-0.0065745884
91	0xbcb5eff0	-0.022209138
92	0xbaebefa8	-0.00180005
93	0x3da32795	0.07966534
94	0xbcb115a1	-0.021616759
95	0xbd551c2e	-0.052028827
96	0x3c4e9aa1	0.012610109
97	0xbd2ba18d	-0.041902114
98	0x3d98f35c	0.07468292
99	0x3d2666ee	0.040625505
100	0x3d0456e4	0.032309428
101	0xbdae8e79	-0.08523268
102	0x3d826fca	0.06368978
103	0x3d5d536b	0.05403463
104	0x3d933264	0.071873456
105	0x3db7eca5	0.08980683
106	0x3db9a031	0.09063757
107	0xbd24c2b4	-0.040224746
108	0x3de112e9	0.10989935
109	0x3e29febd	0.16601081
110	0x3db615a2	0.08890845
111	0x3e1b8f08	0.15191281
112	0x3dcb3dc2	0.09923889
113	0x3dc62e75	0.0967683
114	0xbcfbe6c2	-0.030749682
115	0xbd956eaf	-0.07296502
116	0x3cad35c9	0.02114381
117	0x3cb4066f	0.021975724
118	0xbdb2383d	-0.08702133
119	0xbdc44cd2	-0.09584965
120	0x3bdca091	0.006733008
121	0xbc8e244d	-0.017351294
122	0xbd3a2855	-0.04544862
123	0x3d83e408	0.06439978
124	0x3cd15a55	0.025555769
125	0x3db05b53	0.08611169
126	0x3d5300ad	0.051514316
127	0x3d0ca6ce	0.034338765
128	0xbdb0bf23	-0.086302064
129	0x3c95869c	0.018252663
130	0xbce6ad21	-0.028158726
131	0x3df51ba1	0.119681604
132	0x3db86250	0.090031266
133	0x3ddb71f8	0.10715097
134	0x3c6cffe1	0.014465303
135	0x3c52852a	0.012849132
136	0x3d19e3ca	0.037570752
137	0xbd83e71f	-0.06440567
138	0xbd1a1505	-0.037617702
139	0x3d1086e8	0.035284907
140	0x3e06c27e	0.1316013
141	0x3df3dd8e	0.119074926
142	0xbbdacb0f	-0.0066770385
143	0x3c5faa45	0.013651435
144	0x3c5a4d4a	0.013324091
145	0xbdc5235f	-0.09625887
146	0xbd73d5a9	-0.059529934
147	0xbc497f77	-0.012298456
148	0xbd300916	-0.042977415
149	0xbdb07663	-0.086163305
150	0xbd024bf4	-0.031810716
151	0xbd65d1a0	-0.056108117
152	0xbc051529	-0.008122721
153	0xbb792842	-0.003801838
154	0x3deac4ff	0.11463355
155	0x3cb5525d	0.022134
156	0xbce28ade	-0.027654108
157	0x3d7fa873	0.062416505
158	0xbc82c890	-0.015964776
159	0xbd85e93e	-0.06538628
160	0x3ca2b86b	0.019863328
161	0xbd9093e6	-0.070594594
162	0x3c86128e	0.01636627
163	0xbd7fa8c3	-0.062416803
164	0x3e0835ea	0.13301817
165	0x3e0e96cc	0.13924712
166	0x3d97c6b3	0.07410946
167	0x3df0b4f6	0.117532656
168	0x3d57422f	0.052553352
169	0x3d8dd550	0.06925452
170	0xbdc41b4a	-0.095755175
171	0xbd657d3b	-0.056027632
172	0xbcb5e54b	-0.022204062
173	0xbd0a128f	-0.033709105
174	0xbddeb93f	-0.10875177
175	0xbd75748a	-0.059925593
176	0xbd0b4993	-0.034005713
177	0xbd67ccd1	-0.056591813
178	0xbdbb4103	-0.091432594
179	0xbd6831bc	-0.056688055
180	0xbd048754	-0.03235562
181	0xbdcbe873	-0.099564455
182	0xbe001216	-0.12506899
183	0xbdbc9d7d	-0.09209726
184	0xbcde235a	-0.027116466
185	0xbd8d68a3	-0.069047235
186	0x3da47e5d	0.080319144
187	0x3dc1ecba	0.0946898
188	0x3beea34f	0.0072826515
189	0xbdc27f34	-0.09496918
190	0xbc768d7c	-0.015048381
191	0x3d74611d	0.059662927
192	0xbdb3533e	-0.087561116
193	0xbc8ee493	-0.017442977
194	0x3c0406e0	0.00805828
195	0x3dd797b0	0.10526979
196	0xbcac8ef0	-0.021064252
197	0x3c5ffcee	0.013671143
198	0xbd6bfa40	-0.057611704
199	0x3d9a012e	0.07519756
200	0xbb02141b	-0.001984841
201	0xbd6675a2	-0.056264527
202	0xbd94a2bb	-0.07257601
203	0xbbf9a55a	-0.0076185884
204	0x3dae5d8c	0.085139364
205	0xbbf65c67	-0.0075183394
206	0x3d0ff679	0.035147164
207	0x3c06d2d0	0.008228973
208	0x3d2a8897	0.04163417
209	0x3d66c308	0.05633834
210	0xbd933aca	-0.071889475
211	0xbd0172d0	-0.031603634
212	0x3cfb486d	0.030674184
213	0x3d8c60cc	0.068544
214	0x3d211b7d	0.039332855
215	0xbd182c41	-0.03715158
216	0xbe54bd21	-0.20775272
217	0xbe00d4e7	-0.12581216
218	0x3d81fccb	0.063470446
219	0x3dcdf96c	0.10057339
220	0xbd67a1d0	-0.0565508
221	0xbd7a51b4	-0.061113074
222	0x3b1af310	0.0023643412
223	0x3c9e4af5	0.019322852
224	0x3c88aa16	0.016682666
225	0x3be3daaa	0.006953557
226	0xbde9196d	-0.11381803
227	0xbe025528	-0.12727797
228	0xbd288264	-0.041139975
229	0xbd3d7f1a	-0.04626379
230	0xbd612c6f	-0.054974016
231	0xbd561dc7	-0.05227449
232	0xbdd260d7	-0.10272377
233	0xbc8269e4	-0.015919633
234	0xbca3bfa8	-0.01998885
235	0xbd89b07a	-0.06723113
236	0x3cc04070	0.023468226
237	0xbc1ed588	-0.0096944645
238	0xbd2261d0	-0.039644063
239	0x3da4965e	0.08036493
240	0xbcb5448d	-0.022127414
241	0x3c2cf9e2	0.010557624
242	0x3d0b3e67	0.03399506
243	0x3de29990	0.11064446
244	0x3d5e87c9	0.054328714
245	0x3dac417e	0.08410929
246	0xbcea612b	-0.028610786
247	0xbcf5c0c3	-0.029999143
248	0x3db90ed0	0.090360284
249	0x3ac4f134	0.0015025497
250	0xbc86e744	-0.016467698
251	0xbdb14788	-0.08656222
252	0x3dbdca64	0.092671186
253	0xbbcde4b7	-0.0062833684
254	0xbd5d9f37	-0.054106917
255	0x3b39951d	0.0028317638

conv4.bias f4 [100]
0	0x3d43f0b6	0.04783698
1	0x3d8ee2ff	0.0697689
2	0xbcc0af98	-0.02352123
3	0x3c8a3fcc	0.016876124
4	0xbd3cc093	-0.04608209
5	0x3c4f3b10	0.012648359
6	0x3da5fc63	0.081047796
7	0xbbb8cee4	-0.0056398977
8	0xbdbd5f25	-0.09246663
9	0xbd490f3d	-0.049086798
10	0xbd74c09a	-0.05975399
11	0xbc434faa	-0.011920849
12	0xbd9e6cde	-0.077356085
13	0x3d26ea5e	0.040750854
14	0x3da625e3	0.08112695
15	0xbd345fea	-0.044036783
16	0xbd1ddd17	-0.038540926
17	0xbd0f37d6	-0.03496536
18	0x3cb84b6c	0.022496901
19	0x3d674802	0.056465156
20	0x3daa4e5b	0.08315726
21	0xbda62e0e	-0.08114253
22	0xbd6783c3	-0.056522142
23	0xbcea90cc	-0.028633498
24	0xbdc19d9b	-0.09453889
25	0x3dc81bf9	0.0977096
26	0x3c7b4165	0.0153354155
27	0xbbf0644d	-0.0073361755
28	0xbcc073cc	-0.023492716
29	0xbbd0571d	-0.006358041
30	0xbd3d1ae3	-0.04616822
31	0x3daac333	0.083380125
32	0xbdbbe307	-0.091741614
33	0xbba4cf87	-0.005029622
34	0xbda3ccb0	-0.079980254
35	0xbca5a048	-0.02021803
36	0x3c0ce911	0.008600489
37	0xbd12e410	-0.03586203
38	0xbd802948	-0.06257874
39	0xbd441647	-0.047872808
40	0x3c6982d8	0.014252387
41	0x3da065eb	0.07831939
42	0xbdaea71f	-0.085279696
43	0xbcea47e0	-0.028598726
44	0xbce7494c	-0.028233193
45	0x3d9ecce9	0.07753927
46	0xbc998a08	-0.018742576
47	0x3da51ccb	0.080621324
48	0x3d8717e3	0.06596353
49	0x3d5c7592	0.05382306
50	0xbd3553ea	-0.04426948
51	0xbda4584e	-0.08024655
52	0x3c3848c9	0.011247822
53	0xbcdd2acc	-0.026997946
54	0x3c9c596c	0.019085608
55	0x3d62156e	0.05519622
56	0xbd894686	-0.067029044
57	0x3ba99f50	0.0051764622
58	0xbaaaa4ba	-0.0013019063
59	0x3db41e17	0.08794802
60	0xbd1ec87a	-0.038765408
61	0x3ca4ace8	0.02010198
62	0x3d615942	0.055016764
63	0x3d816f39	0.06320042
64	0x3d5e78fe	0.054314606
65	0x3d0ca68a	0.03433851
66	0x3cdb1294	0.026742257
67	0xbd05a050	-0.03262359
68	0x3d64dcde	0.055874698
69	0x3c75ed90	0.015010253
70	0xbd0d1af4	-0.034449533
71	0x3d9e7c1f	0.07738518
72	0x3b539186	0.0032282784
73	0xbb68843c	-0.0035479208
74	0x3d9d4c9d	0.076806284
75	0xbdc3b983	-0.09556868
76	0xbbc36dd2	-0.0059640193
77	0x3d0d7ca6	0.034542702
78	0xbd6498a0	-0.055809617
79	0x3d2dca1e	0.042429082
80	0x3cb5dd68	0.022200301
81	0x3d8f1721	0.06986833
82	0xbdb04245	-0.0860639
83	0x3d823439	0.06357617
84	0x3c3a31bf	0.011364399
85	0x3bb44bec	0.0055022147
86	0x3dabc8a9	0.08387882
87	0x3d60a542	0.054845102
88	0x3b13f4c0	0.0022576302
89	0x3d3dd5ae	0.04634636
90	0x3d831bd7	0.064017944
91	0x3d171bba	0.036891676
92	0xbcd146a0	-0.025546372
93	0xbad3ee06	-0.0016168959
94	0xbab823dd	-0.0014048774
95	0xbca20f48	-0.019782677
96	0xbdc91cdf	-0.0981996
97	0xbcef6c98	-0.029226586
98	0x3d18e8da	0.03733144
99	0x3bbdab00	0.005788207

bn2.weight f4 [100]
0	0x3f823fd6	1.0175731
1	0x3f8177d2	1.0114691
2	0x3f79147c	0.9729688
3	0x3f7b7da6	0.982386
4	0x3f7fbf84	0.99901605
5	0x3f7bff33	0.9843628
6	0x3f7a1137	0.9768252
7	0x3f7bedeb	0.9840991
8	0x3f7ab846	0.9793743
9	0x3f8064b1	1.0030729
10	0x3f83924c	1.0279021
11	0x3f81578d	1.0104843
12	0x3f79de43	0.9760477
13	0x3f7e43a3	0.99321955
14	0x3f7d8617	0.9903273
15	0x3f73d0d2	0.9524051
16	0x3f7d1fb1	0.9887648
17	0x3f832f5e	1.024883
18	0x3f82a324	1.0206037
19	0x3f7e1ca8	0.99262476
20	0x3f7a4a7a	0.9776989
21	0x3f816450	1.0108738
22	0x3f86d152	1.053263
23	0x3f780805	0.96887237
24	0x3f7d6c87	0.98993725
25	0x3f7bb99b	0.98330086
26	0x3f7c8b2e	0.9864987
27	0x3f7bf8a6	0.9842628
28	0x3f7b7066	0.9821838
29	0x3f839d65	1.0282408
30	0x3f81b551	1.0133458
31	0x3f787579	0.9705425
32	0x3f75470a	0.9581152
33	0x3f8316a3	1.0241283
34	0x3f8ae6e2	1.085171
35	0x3f768fd9	0.96313244
36	0x3f7d323d	0.9890478
37	0x3f8be3af	1.0928859
38	0x3f7a0d26	0.9767631
39	0x3f81b2ab	1.013265
40	0x3f7bf44e	0.98419654
41	0x3f8048d9	1.0022231
42	0x3f82c710	1.0216999
43	0x3f85a3bf	1.0440596
44	0x3f875981	1.057419
45	0x3f795bb0	0.9740553
46	0x3f7bd4d4	0.98371625
47	0x3f80d3ee	1.0064676
48	0x3f7ad720	0.97984505
49	0x3f813a81	1.0095979
50	0x3f7caaf4	0.98698354
51	0x3f7896b0	0.9710493
52	0x3f886c6d	1.0658089
53	0x3f81c29b	1.0137514
54	0x3f7dffbd	0.9921835
55	0x3f812043	1.008797
56	0x3f823cdc	1.0174823
57	0x3f862693	1.0480522
58	0x3f802381	1.0010835
59	0x3f7e16f1	0.99253756
60	0x3f83539c	1.025989
61	0x3f8c0e87	1.0941933
62	0x3f799028	0.9748559
63	0x3f7b95a7	0.98275226
64	0x3f782eab	0.9694621
65	0x3f7b2c06	0.9811405
66	0x3f7cd308	0.9875951
67	0x3f8351d3	1.0259346
68	0x3f79ac1b	0.9752824
69	0x3f7659e4	0.9623091
70	0x3f876fd2	1.0581
71	0x3f7d91e9	0.99050766
72	0x3f80e88b	1.0070966
73	0x3f806d73	1.0033401
74	0x3f7f341b	0.9968888
75	0x3f72e407	0.9487919
76	0x3f7aa763	0.9791166
77	0x3f795a92	0.97403824
78	0x3f7f1529	0.9964166
79	0x3f81d666	1.0143554
80	0x3f7e894c	0.9942825
81	0x3f77a5ca	0.9673735
82	0x3f82e689	1.0226604
83	0x3f7c3e8e	0.9853295
84	0x3f86bff9	1.0527335
85	0x3f8287d6	1.0197704
86	0x3f7e5c0b	0.99359196
87	0x3f7a9336	0.97880876
88	0x3f7a6085	0.9780353
89	0x3f8169df	1.0110434
90	0x3f7c8f6a	0.9865633
91	0x3f7a6892	0.9781581
92	0x3f7f98cd	0.9984253
93	0x3f77bf81	0.96776587
94	0x3f80b2f0	1.0054607
95	0x3f7f55a2	0.9974004
96	0x3f8321e4	1.0244718
97	0x3f7f721d	0.997835
98	0x3f7ade43	0.97995394
99	0x3f7e50d5	0.9934209

bn2.bias f4 [100]
0	0x30c6dff5	1.4470048e-09
1	0x30f0df4e	1.7525765e-09
2	0xb19ec5e0	-4.620901e-09
3	0x3085810b	9.7137e-10
4	0x312ed5b6	2.5441813e-09
5	0xb1a52a8c	-4.806969e-09
6	0xb0ccab3c	-1.4891621e-09
7	0x30eb81ae	1.7135358e-09
8	0xb11be0fb	-2.2683355e-09
9	0x31701acb	3.4939827e-09
10	0x301aad2b	5.627096e-10
11	0x3208a86e	7.954538e-09
12	0xb11192ee	-2.1183797e-09
13	0x31339b85	2.613633e-09
14	0xb184b60c	-3.862402e-09
15	0x2f627d96	2.0599197e-10
16	0xb0ba560e	-1.3557739e-09
17	0xb2216517	-9.394419e-09
18	0x2e72d440	5.5212945e-11
19	0xb2248d10	-9.57813e-09
20	0x322f9b65	1.0221673e-08
21	0xb01f7206	-5.80059e-10
22	0xb1526600	-3.0617002e-09
23	0xaf3c06f1	-1.7100966e-10
24	0xb136d904	-2.6607845e-09
25	0x31a87760	4.903015e-09
26	0x2fee1518	4.3306936e-10
27	0xb1d03de2	-6.060632e-09
28	0xb10d607f	-2.0573052e-09
29	0x3211ec28	8.4938065e-09
30	0x2fb50867	3.2929678e-10
31	0xb0d75cab	-1.5669647e-09
32	0xb042caa8	-7.086478e-10
33	0x31c6e37d	5.788421e-09
34	0xb1ba82b2	-5.428171e-09
35	0xb1b66875	-5.3087725e-09
36	0x31c4ff1f	5.7333547e-09
37	0xaea414c4	-7.461545e-11
38	0x302ecea7	6.35945e-10
39	0xb1d9c1be	-6.337557e-09
40	0x31ae16da	5.0666644e-09
41	0xb20f8a0f	-8.355086e-09
42	0x30be2cf0	1.3837091e-09
43	0x324544b4	1.14825305e-08
44	0x2fd9fa49	3.9649908e-10
45	0xb148d676	-2.9225737e-09
46	0x318ad0fe	4.0400883e-09
47	0xb1ead8c9	-6.834942e-09
48	0x31c1abb0	5.636558e-09
49	0x31c2f667	5.674156e-09
50	0xafa5da6f	-3.0168532e-10
51	0x315bebe4	3.2002783e-09
52	0x31377b3b	2.6700053e-09
53	0xafb6e117	-3.3265543e-10
54	0xb0f25f35	-1.7634877e-09
55	0xaf3a46dc	-1.6941776e-10
56	0xb184b4dc	-3.862267e-09
57	0x312f1dae	2.5482723e-09
58	0xaf814109	-2.3511174e-10
59	0x30994339	1.1151321e-09
60	0xb0ebede9	-1.7166119e-09
61	0xb1a8e1ff	-4.9151363e-09
62	0x301b217e	5.6436267e-10
63	0xb1c1ca38	-5.640029e-09
64	0xb0e4d77a	-1.6650425e-09
65	0xb1a51de8	-4.805532e-09
66	0x30e41792	1.6595882e-09
67	0x311885f3	2.2195052e-09
68	0x31251349	2.4021622e-09
69	0xaf2de1bf	-1.581446e-10
70	0xb0e8e8d6	-1.6946398e-09
71	0xb21d25b0	-9.147172e-09
72	0x31310e3a	2.5764977e-09
73	0x312a619c	2.479374e-09
74	0x31c01073	5.5898055e-09
75	0xb006732f	-4.89126e-10
76	0x312a2d73	2.476409e-09
77	0x3200197a	7.456373e-09
78	0xb1d69788	-6.245447e-09
79	0x32106aa5	8.406151e-09
80	0xb1b7fcc9	-5.3547393e-09
81	0xb1c942fe	-5.857486e-09
82	0x31849a8b	3.859275e-09
83	0xb1038747	-1.9139905e-09
84	0x2d83b134	1.497167e-11
85	0x321dd8ab	9.187867e-09
86	0xb21c688d	-9.104167e-09
87	0xb08d3f74	-1.0277135e-09
88	0xae94fa89	-6.774765e-11
89	0xb18cafbb	-4.0945145e-09
90	0x309b17d3	1.1284506e-09
91	0x31e79a64	6.740537e-09
92	0x31aa9724	4.964834e-09
93	0xb0fbbfd9	-1.831718e-09
94	0x312b7078	2.4947706e-09
95	0x2f7ce1c4	2.2999475e-10
96	0x31c2901f	5.662528e-09
97	0xb1af9fb8	-5.1113282e-09
98	0xafdfb190	-4.068963e-10
99	0xb1baa9f5	-5.4326343e-09

bn2.running_mean f4 [100]
0	0xbc8bc778	-0.017062888
1	0x3e2dfaad	0.16990156
2	0xbe4912a8	-0.19636023
3	0x3d77a5d7	0.06046089
4	0x3ea42fe1	0.3206778
5	0x3db1af2b	0.08675989
6	0x3e98c35c	0.29836547
7	0x3e802520	0.25028324
8	0xbe8d8f58	-0.27648425
9	0xbc8f179c	-0.017467313
10	0xbba964a3	-0.0051694675
11	0xbe639ce6	-0.22227821
12	0xbd92680e	-0.07148753
13	0xbe8113b1	-0.25210336
14	0x3c43a7d4	0.011941869
15	0x3e6390f6	0.22223267
16	0xbdf2dc97	-0.118584804
17	0xbe92aadd	-0.28645983
18	0xbdb896bd	-0.09013126
19	0x3e54ff4c	0.20800513
20	0x3e8025b8	0.25028777
21	0xbe706e1b	-0.23479502
22	0xbcd0411e	-0.025421675
23	0xbdf41634	-0.119182974
24	0x3d4477b6	0.047965728
25	0xbc5c6566	-0.01345191
26	0x3de5b663	0.11216428
27	0xbe295980	-0.16538048
28	0xbdef6c8a	-0.11690624
29	0x3d1c118d	0.038102675
30	0xbc41e96d	-0.011835438
31	0x3e9ec656	0.31010693
32	0xbdbe6f59	-0.09298582
33	0x3e0e35c1	0.13887693
34	0xbd9de23f	-0.07709169
35	0xbe751bbe	-0.23936364
36	0x3dccc701	0.099988945
37	0xbe0090e1	-0.12555267
38	0xbd546e32	-0.051862903
39	0x3d38d6c4	0.04512669
40	0xbdbda0c2	-0.09259178
41	0xbdaabe2b	-0.08337053
42	0x3dfea90a	0.124345854
43	0xbc083d81	-0.008315445
44	0xbe56c88c	-0.2097494
45	0x3de57218	0.11203402
46	0x3e3801d5	0.17969449
47	0x3daaed8c	0.0834609
48	0x3e1aa885	0.15103348
49	0x3e49b027	0.19696103
50	0xbded351f	-0.11582398
51	0xbe26c328	-0.16285384
52	0x3e00a92e	0.12564537
53	0xbe3c0164	-0.18359905
54	0x3c21d268	0.009876825
55	0x3e450840	0.19241428
56	0xbe2ae8fb	-0.16690437
57	0x3d03ac27	0.0321466
58	0x3cd81f2f	0.026382057
59	0x3e0d258c	0.13783854
60	0x3dd00ff2	0.10159291
61	0x3c331a68	0.010931589
62	0xbe8840d0	-0.26611948
63	0x3d19de9e	0.03756582
64	0x3e4594ea	0.19295087
65	0x3e6d7431	0.23188855
66	0xbd788d40	-0.06068158
67	0xbdd78b72	-0.10524644
68	0x3e126e98	0.143
69	0x3e6667e9	0.22500576
70	0xbdf477db	-0.11936923
71	0x3dac07b0	0.08399904
72	0xbcac16a9	-0.021006899
73	0xbbbcc8fd	-0.0057612644
74	0x3d5bd4e3	0.05366982
75	0xbe52fece	-0.20605013
76	0xbd022383	-0.031772148
77	0x3e6af29a	0.22944108
78	0xbe3c2c6f	-0.18376325
79	0xbe1381c3	-0.14404969
80	0x3e6a31ed	0.22870608
81	0xbd05cfd5	-0.032668907
82	0x3c346e08	0.011012562
83	0xbe2e7025	-0.17034967
84	0x3c982d06	0.018576156
85	0x3a6bca32	0.0008994668
86	0x3c01b8b7	0.007917575
87	0x3e033f4b	0.12817113
88	0xbe5ab4ee	-0.21358082
89	0x3dd81614	0.10551086
90	0x3d83ab84	0.064291984
91	0xbba14c14	-0.0049223993
92	0xbe7d39b0	-0.24729037
93	0xbdafc881	-0.08583165
94	0xbddb6206	-0.10712056
95	0xbd84e482	-0.06488897
96	0xbd7cc529	-0.061711464
97	0xbe4743e5	-0.19459493
98	0xbdb6ef0e	-0.08932315
99	0x3e080f62	0.13287118

bn2.running_var f4 [100]
0	0x3d0d7412	0.03453452
1	0x3cbe8f80	0.023261786
2	0x3cbc0821	0.022953095
3	0x3cc6dde4	0.024275728
4	0x3c996290	0.018723756
5	0x3cf0dadb	0.029401233
6	0x3c939df5	0.018019656
7	0x3c8b3679	0.016993748
8	0x3c9f026a	0.01941033
9	0x3cde066a	0.027102668
10	0x3cbb95d4	0.022898592
11	0x3ccddc44	0.025129445
12	0x3c908869	0.01764317
13	0x3ca5aaca	0.02022304
14	0x3cf2675b	0.0295903
15	0x3cdfdb8a	0.027326364
16	0x3cce626f	0.025193421
17	0x3caf0ed8	0.021369383
18	0x3cf5d99f	0.030010996
19	0x3cb4141f	0.02198225
20	0x3ca38504	0.019960888
21	0x3cd0a539	0.02546941
22	0x3cd7b6de	0.026332315
23	0x3d02078f	0.03174549
24	0x3cb489c4	0.022038348
25	0x3cf40c03	0.029790884
26	0x3c59c056	0.013290485
27	0x3c89dd4e	0.01682916
28	0x3cd854f9	0.026407706
29	0x3cdc1131	0.026863666
30	0x3d0dd67d	0.03462838
31	0x3c9d888b	0.019230148
32	0x3c7cdfd2	0.015434222
33	0x3cd0fa88	0.025510088
34	0x3d2281db	0.03967462
35	0x3cc6f9b7	0.024288995
36	0x3cbd130d	0.023080373
37	0x3ce5c63d	0.028048629
38	0x3c951c40	0.018201947
39	0x3cd5ddca	0.026106734
40	0x3c8051eb	0.015664062
41	0x3cd84ba1	0.02640325
42	0x3d0158be	0.03157877
43	0x3d0e6f30	0.034774005
44	0x3d1d90a9	0.038468037
45	0x3ccc73e5	0.024957607
46	0x3ca7104e	0.020393517
47	0x3d04bebd	0.032408465
48	0x3c93393a	0.017971624
49	0x3ca5cd60	0.020239532
50	0x3cb563e9	0.022142367
51	0x3cc87a34	0.024472333
52	0x3d06ad80	0.032880306
53	0x3cdec535	0.027193645
54	0x3c911dcd	0.017714405
55	0x3cc8d02e	0.02451333
56	0x3d019813	0.03163917
57	0x3cdca25e	0.026932891
58	0x3cb3ecc9	0.021963494
59	0x3cdc4f04	0.026893146
60	0x3d0fd5bc	0.035115942
61	0x3d12c73e	0.035834543
62	0x3c8985d7	0.016787453
63	0x3c7e3894	0.015516419
64	0x3ca8ae17	0.020590825
65	0x3c9cb09f	0.019127188
66	0x3cb74150	0.02237001
67	0x3cb05329	0.021524029
68	0x3c9b37a9	0.01894744
69	0x3c99c79b	0.018771937
70	0x3c86e405	0.01646615
71	0x3caa8433	0.02081499
72	0x3ce7c620	0.028292716
73	0x3d02c345	0.031924505
74	0x3d0af1e3	0.033922087
75	0x3c926362	0.017869655
76	0x3d02167c	0.031759724
77	0x3cbd48a1	0.023105921
78	0x3cafe6eb	0.021472415
79	0x3cd1682a	0.025562365
80	0x3ca24805	0.019809732
81	0x3cfdca9a	0.030980397
82	0x3cd0f088	0.02550532
83	0x3ccf3e21	0.02529818
84	0x3ce29236	0.02765761
85	0x3d0e2afa	0.034708954
86	0x3cb0f591	0.02160147
87	0x3c9d63fc	0.019212715
88	0x3ccbc9c0	0.024876475
89	0x3d008118	0.031373113
90	0x3ca3a17f	0.019974468
91	0x3ca25917	0.019817872
92	0x3cc26f6c	0.02373477
93	0x3cc4521f	0.02396494
94	0x3c9848c8	0.018589392
95	0x3cc8761b	0.02447038
96	0x3cee8194	0.029114522
97	0x3ceed447	0.029153956
98	0x3c93a674	0.018023707
99	0x3cf59c9a	0.0299819

fc1.weight f4 [100, 100]
0	0x3bbd4f5c	0.0057772826
1	0xbd10f743	-0.035392057
2	0xbda9ef80	-0.08297634
3	0x3cf5eabf	0.030019162
4	0xbbb70183	-0.005584897
5	0xbd9325a4	-0.07184914
6	0xbdb2bda2	-0.08727576
7	0xbc180cb8	-0.009280376
8	0x3a4d450b	0.00078304176
9	0xbd3b72a6	-0.045763634
10	0xbd38ca40	-0.045114756
11	0xbda330ff	-0.0796833
12	0xbd92cbfd	-0.07167814
13	0xbd62b2cf	-0.055346306
14	0x3da7fa1d	0.08202002
15	0xbcc53cde	-0.024076875
16	0x3d033ae7	0.032038596
17	0x3dbc99f7	0.09209054
18	0xbd71fb33	-0.059077453
19	0xbda44e22	-0.08022715
20	0xbda451aa	-0.08023389
21	0xbd6780a4	-0.056519166
22	0x3c5ce01d	0.013481167
23	0xbd3b26ee	-0.045691423
24	0x3d3217b9	0.043479655
25	0xbc211ef6	-0.009834042
26	0xbccbab67	-0.024862004
27	0xbd78f145	-0.060776968
28	0xbccb2654	-0.02479855
29	0xbd742982	-0.059609897
30	0xbcdbc9b7	-0.026829584
31	0xbd0eb114	-0.034836844
32	0xbd26ae1a	-0.04069338
33	0xbd2ebc93	-0.042660307
34	0xbe0e1bba	-0.13877764
35	0xbdbf0ecb	-0.093289934
36	0xbda38f9d	-0.079863764
37	0xbdcd6cc6	-0.100305125
38	0x3d9c7867	0.076401524
39	0xbd6a53a5	-0.057208676
40	0x3d92adb0	0.071620345
41	0xbdae06dc	-0.08497402
42	0xbcc27574	-0.023737647
43	0xbdd973cf	-0.10617792
44	0xbc4d0687	-0.012513763
45	0x3d382ca5	0.04496445
46	0xbdf0af7b	-0.1175222
47	0x3dcca5eb	0.09992584
48	0x3dd1e5cc	0.102489084
49	0xbd056ed4	-0.032576397
50	0xbd6feb63	-0.05857409
51	0x3dbfb7ce	0.0936123
52	0xbd6208fc	-0.05518435
53	0x3d1991ae	0.037492447
54	0x3d7dfd41	0.0620091
55	0x3c2fbbbf	0.0107259145
56	0xbd657c8c	-0.05602698
57	0x3d9bb2cd	0.07602463
58	0x3d43698d	0.047708083
59	0xbda51c4f	-0.0806204
60	0xbe1ad58f	-0.15120529
61	0xbcc81803	-0.024425512
62	0x3d4287da	0.04749284
63	0xbdec4968	-0.11537439
64	0x3d862080	0.06549168
65	0xbe006b0b	-0.12540834
66	0x3d62ef94	0.05540426
67	0xbdf8c744	-0.12147382
68	0xbdca8f04	-0.09890559
69	0x3c58434a	0.013199637
70	0x3d4c5785	0.049888153
71	0xbd4db155	-0.050217945
72	0xbb3bf470	-0.0028679632
73	0x3cd055aa	0.025431473
74	0xbdcd8778	-0.10035604
75	0x3cd30941	0.025761249
76	0x3d44d3a8	0.048053414
77	0xbd1addbd	-0.037809122
78	0x3dc9ac18	0.098472774
79	0xbd7d0b64	-0.06177844
80	0x3c864b20	0.016393244
81	0x3d22db8f	0.03976017
82	0xbd721685	-0.059103508
83	0xbd8c066d	-0.06837163
84	0xbd8c0297	-0.068364315
85	0xbd43373c	-0.047660097
86	0x3d28d6ca	0.041220464
87	0x3cce9e34	0.025221922
88	0xbdcbc624	-0.09949902
89	0x3d85a109	0.06524856
90	0xbd629cde	-0.05532538
91	0xbd846e6c	-0.06466374
92	0xbb69766e	-0.0035623568
93	0xbb847d57	-0.004043262
94	0xb9ee5bea	-0.0004546338
95	0x3d817e81	0.06322957
96	0xbdf2f56d	-0.118632175
97	0x3d6abff3	0.057311963
98	0xbd615714	-0.055014685
99	0xbc28e78a	-0.010309109
100	0xbd406856	-0.046974503
101	0x3e003f1a	0.12524071
102	0xbd38daa9	-0.045130406
103	0xbba91bec	-0.0051607993
104	0xbd57f2cc	-0.052721784
105	0xbd96a881	-0.07356358
106	0x3c45186a	0.012029747
107	0x3d2a56d0	0.041586697
108	0xbd92bd56	-0.07165019
109	0xbd56aebe	-0.05241274
110	0xbd75a5d8	-0.059972614
111	0xbdfcdc5d	-0.123467185
112	0x3d9d6f45	0.076872386
113	0x3c4405cf	0.0119642755
114	0x3c66fb8a	0.0140980575
115	0xbcefce61	-0.029273214
116	0xbcb7d12f	-0.022438614
117	0xbd54acdb	-0.05192266
118	0xbdc32fd9	-0.095306106
119	0x3d4fff86	0.050780796
120	0x3d863567	0.065531544
121	0x3d6071d1	0.054796044
122	0xbd84fd7f	-0.06493663
123	0x3dacc8e9	0.08436758
124	0xbd1eb511	-0.038746897
125	0xbd2db291	-0.042406622
126	0x3dc657db	0.09684726
127	0xbc1956b7	-0.009359053
128	0xbdd3befa	-0.1033916
129	0xbda35003	-0.079742454
130	0xbcea20e2	-0.028580133
131	0x3d499800	0.049217224
132	0x3d3ddc73	0.046352815
133	0x3d8c69f9	0.0685615
134	0xbac8eccf	-0.0015329364
135	0xbd4e18f0	-0.05031675
136	0xbc6e6bbc	-0.014552053
137	0xbc8aa829	-0.016925888
138	0xbd9de4f3	-0.07709684
139	0x3d4e8142	0.05041624
140	0xbd38e361	-0.04513872
141	0x3b8e41d9	0.0043413457
142	0xbd794c6c	-0.060863897
143	0xbd95f2ea	-0.07321723
144	0xbd26b5b9	-0.040700648
145	0x3d67a07d	0.056549538
146	0x3d06060b	0.032720607
147	0x3ceea69f	0.029132186
148	0x3d208735	0.039191443
149	0xbdad53db	-0.0846326
150	0xbdadcfd2	-0.08486904
151	0x3d082373	0.033236932
152	0xbd8af3e4	-0.067848
153	0xbda36847	-0.07978874
154	0xbd9d43be	-0.076789364
155	0x3bda4a8a	0.006661718
156	0xbc551f82	-0.013008
157	0x3d96e915	0.073686756
158	0x3d597449	0.053089414
159	0x3ca52d72	0.020163272
160	0xbd9b1825	-0.075729646
161	0xbd039b8e	-0.03213077
162	0x3c549955	0.01297601
163	0xbdad0845	-0.08448843
164	0xbd43748c	-0.04771857
165	0xbd0876e4	-0.033316508
166	0xbda615fb	-0.08109661
167	0xbdbfbfca	-0.09362753
168	0xbd90b243	-0.07065251
169	0xbc9e0794	-0.019290723
170	0x3cd240e2	0.025665704
171	0x3dceeb00	0.101034164
172	0xbde0f15d	-0.109835364
173	0x3ce5351e	0.02797943
174	0xbcc35239	-0.023842918
175	0xbd16fd53	-0.036862683
176	0xbcd9e3d2	-0.026597891
177	0xbd0849d9	-0.03327355
178	0x3d34579d	0.044028867
179	0x3daaf3b1	0.08347262
180	0xbce6f5e4	-0.028193422
181	0x3d94805e	0.072510466
182	0x3d3839a2	0.044976838
183	0xbd0bdd59	-0.03414664
184	0x3de43c29	0.11144287
185	0x3d3a2f91	0.04545552
186	0xbbd241fc	-0.0064165574
187	0x3d94266a	0.072338894
188	0x3d91c208	0.07117087
189	0x3d6d5c1d	0.057949174
190	0xbd8ff4e8	-0.07029134
191	0xbd83e0c8	-0.06439358
192	0x3b354bd8	0.0027663615
193	0x3c4e127f	0.012577652
194	0x3de9cac8	0.114156306
195	0x3ca96677	0.020678742
196	0xbdc6e593	-0.097117566
197	0x3d8f5fa9	0.070006676
198	0x3dbf35bb	0.0933642
199	0x3d93ac39	0.07210583
200	0xbccc9aaa	-0.024976093
201	0xbb811147	-0.003938827
202	0x3d925f8d	0.07147131
203	0xbcedda99	-0.0290349
204	0xbd2f8055	-0.042846996
205	0x3d99e6d7	0.07514732
206	0xbd6b97f3	-0.057517957
207	0xbc769f71	-0.015052662
208	0x3c30b8b0	0.01078622
209	0x3d82a7b7	0.06379645
210	0x3cfcb675	0.030848721
211	0xbce0c5a1	-0.027437987
212	0xbda1a9b8	-0.078936994
213	0x3cf22cf1	0.029562445
214	0xbd65fee6	-0.056151293
215	0x3dbdc16d	0.09265409
216	0x3d9c3086	0.076264426
217	0x3dc0cef4	0.09414473
218	0xbdbc28ab	-0.09187444
219	0x3d3cfaad	0.0461375
220	0xbd8a2b35	-0.06746522
221	0xbd903833	-0.07041969
222	0xbcfdf0f2	-0.03099868
223	0x3cc2aa9f	0.023763
224	0x3d12a296	0.035799585
225	0x3cfaea4e	0.030629303
226	0x3ab121c4	0.0013514091
227	0x3ceb0ee2	0.02869362
228	0x3db101cf	0.08642923
229	0x3bb65d30	0.005565308
230	0xbdf062eb	-0.11737617
231	0xbcdf0996	-0.02722625
232	0x3d974df0	0.07387912
233	0xbcb0585d	-0.02152651
234	0x3dbc761e	0.092022166
235	0xbd46d6c0	-0.048544645
236	0xbd143a94	-0.036188677
237	0x3e09f8bf	0.13473795
238	0xbd8668e5	-0.06562976
239	0x3d1f17cf	0.038841065
240	0x3cd95fcf	0.026534943
241	0x3db2381e	0.0870211
242	0x3ba2459d	0.004952146
243	0xbca81453	-0.020517504
244	0xbc3fabc1	-0.011698664
245	0xbd8aa8d7	-0.06770485
246	0xbc9a0899	-0.018802928
247	0xbda22796	-0.07917707
248	0xbccc1239	-0.024911033
249	0xbd3167dd	-0.043311942
250	0xbdb6f262	-0.089329496
251	0x3c7c7171	0.015407906
252	0x3d6d712c	0.057969257
253	0x3d2c7460	0.04210317
254	0x3e09edff	0.13469695
255	0x3c27d587	0.01024378
