model/eeg_lstm.pth (torch, 870268 bytes, 14 tensors)

bn1.weight f4 [14]
0	0x40259de0	2.587761
1	0x40249aea	2.5719552
2	0x4038f468	2.8899174
3	0x400784c9	2.1174796
4	0x40225e92	2.537022
5	0x400abf27	2.167917
6	0x40295fad	2.6464646
7	0x40207878	2.5073528
8	0x3f9447b5	1.1584383
9	0x3ffdee67	1.983838
10	0x4017267a	2.3617234
11	0x3f774961	0.9659634
12	0x402fb80a	2.7456079
13	0x40396db5	2.897321

bn1.bias f4 [14]
0	0xbe5b01ad	-0.21387358
1	0xbe7b93cb	-0.24568097
2	0xbe43b311	-0.19111277
3	0xbdd81ab2	-0.10551967
4	0xbd6983b0	-0.057010353
5	0xbe305042	-0.17218116
6	0xbe83ba6a	-0.2572816
7	0xbe7e4d73	-0.24834232
8	0xbd43c35c	-0.04779373
9	0xbdd17cb6	-0.10228865
10	0xbdfc8828	-0.12330657
11	0xbbdfc5b6	-0.006828989
12	0xbe7c3c13	-0.24632291
13	0xbe41721f	-0.1889119

bn1.running_mean f4 [14]
0	0x4583e215	4220.2603
1	0x4583cebf	4217.8433
2	0x4583ce1b	4217.763
3	0x4583eead	4221.8345
4	0x45842a1a	4229.2627
5	0x4584205c	4228.045
6	0x4583d563	4218.6733
7	0x4583d624	4218.7676
8	0x45841323	4226.392
9	0x458447d3	4232.978
10	0x458412ad	4226.3345
11	0x4583d9e9	4219.239
12	0x4583e982	4221.1885
13	0x4583ee0c	4221.756

bn1.running_var f4 [14]
0	0x463639e7	11662.476
1	0x465d3317	14156.772
2	0x46b0bce9	22622.455
3	0x466f7ee4	15327.723
4	0x423dfc66	47.496483
5	0x443f488c	765.13354
6	0x46d40598	27138.797
7	0x46d41713	27147.537
8	0x463d37fb	12109.995
9	0x41e6c5a5	28.846506
10	0x45d2ebc0	6749.4688
11	0x4734eb87	46315.527
12	0x468c4404	17954.008
13	0x463dfc34	12159.051

lstm.weight_ih_l0 f4 [512, 32]
0	0xbf5885d0	-0.8457918
1	0xbe8f5c61	-0.28000167
2	0xbf457447	-0.7713055
3	0x3ed4dac9	0.4157317
4	0xbeaf7757	-0.34270737
5	0x3f0302c2	0.51176083
6	0x3f2795f2	0.65463173
7	0x3e8d2e97	0.27574608
8	0x3f9fb7d9	1.2477981
9	0xbd49cacf	-0.04926568
10	0xbd85628f	-0.06512939
11	0xbdde5cee	-0.10857569
12	0xbe2fd666	-0.1717163
13	0xbcff60f8	-0.031174168
14	0x3e5db374	0.21650487
15	0xbfcc1aa0	-1.5945625
16	0x3dcdbf9f	0.100463144
17	0xbe91074d	-0.28325883
18	0x3f8177ef	1.0114726
19	0x3f129e50	0.57272816
20	0x3ebf84d8	0.3740604
21	0x3dc366b7	0.09541076
22	0x3f445923	0.7669851
23	0x3f7e91e7	0.9944138
24	0xbe8bb204	-0.27284253
25	0xbe0a8ae7	-0.1352955
26	0xbcd652c2	-0.026162509
27	0x3e860d92	0.26182228
28	0xbf19edb3	-0.60128325
29	0xbf08526e	-0.5325078
30	0xbe58dc52	-0.21177796
31	0x3f24861d	0.6426714
32	0x3f10dc4f	0.56586164
33	0xbe0ebb0e	-0.13938543
34	0xbe9c0233	-0.30470428
35	0xbfba6a11	-1.4563619
36	0xbf2e8ba0	-0.681818
37	0xbdcd2b1d	-0.10017989
38	0x3e6b604c	0.22985953
39	0xbd20e5de	-0.03928172
40	0xbed9d19c	-0.42542732
41	0xbfbe64b6	-1.4874485
42	0x3eccc52e	0.39994186
43	0x3edd4d5e	0.4322309
44	0x3dae5f8a	0.085143164
45	0x3f0e790c	0.5565345
46	0xbf269c23	-0.65081996
47	0xbefe5da6	-0.49680823
48	0xbe6b430c	-0.22974795
49	0x3ec26a30	0.3797164
50	0xbf078e71	-0.52951723
51	0xbcf56395	-0.029954711
52	0xbf9232a0	-1.14217
53	0x3ee79f3a	0.45238668
54	0x3f2db9ca	0.67861617
55	0x3eead09f	0.4586229
56	0xbf088a2a	-0.5333582
57	0x3ec9948d	0.39371148
58	0x3dc5c7bf	0.09657239
59	0x3f1885d8	0.5957923
60	0xbcf94f32	-0.030433271
61	0x3e970aa7	0.29500315
62	0x3f241095	0.640878
63	0x3f15def3	0.5854332
64	0xbe808168	-0.2509873
65	0xbf2f969c	-0.68589187
66	0x3c11e605	0.008904939
67	0x3e6fa5e2	0.23403123
68	0xbdc69f13	-0.0969831
69	0xbe719dd9	-0.2359537
70	0x3e574bd9	0.21025027
71	0xbe3b4061	-0.18286277
72	0x3f432998	0.7623534
73	0x3dee6535	0.116403975
74	0xbf87dafe	-1.0613706
75	0xbf382e97	-0.7194609
76	0x3e04aa7b	0.12955658
77	0xbee47edd	-0.4462804
78	0x3e86e98e	0.26350063
79	0x3ea28d6d	0.31748524
80	0x3f0c30e4	0.547621
81	0xbf02d699	-0.511087
82	0x3e722c6b	0.23649757
83	0xbee76126	-0.45191306
84	0xbfa149f8	-1.2600698
85	0xbe8e5ed6	-0.2780673
86	0xbe7641ea	-0.24048582
87	0x3f58c27a	0.8467175
88	0x3f3a4b7c	0.7277143
89	0xbf45e216	-0.77298105
90	0xbd07b258	-0.033129066
91	0xbf7dc9d5	-0.99136096
92	0x3c7d595e	0.015463201
93	0x3ddf64cf	0.109078996
94	0xbeeb4257	-0.4594905
95	0x3f4c4da1	0.7980595
96	0xbf911503	-1.1334537
97	0x3de0b818	0.10972613
98	0xbf8ec9e3	-1.1155361
99	0x3dfb7cee	0.12279688
100	0x3de0e228	0.10980636
101	0xbf43b8d0	-0.76453876
102	0x3dee2205	0.116275825
103	0xbfab8b3a	-1.3401864
104	0x3e6cbaa0	0.23118067
105	0x3f70c902	0.94056714
106	0x3d3637d7	0.044486847
107	0x3f28f24b	0.6599471
108	0xbf2a8dd2	-0.6662265
109	0x3de1f92c	0.11033854
110	0x3f3757d7	0.7161841
111	0x3f6b504b	0.9191939
112	0x3f5e8021	0.8691426
113	0xbdb76ba0	-0.08956075
114	0xbd895c66	-0.06707077
115	0xbf047260	-0.5173702
116	0xbe2618bb	-0.16220371
117	0xbf8b4b29	-1.0882312
118	0xbf7e79ca	-0.99404585
119	0xbdf43e03	-0.1192589
120	0xbe4615f8	-0.19344318
121	0xbf17353d	-0.5906561
122	0xbfaaf6c0	-1.3356552
123	0xbe958a94	-0.2920729
124	0x3d98674d	0.07441578
125	0xbec11d1e	-0.37717527
126	0x3e26713c	0.16254133
127	0x3e73ddfb	0.23815148
128	0xbe8bb037	-0.2728288
129	0x3fd34ece	1.6508424
130	0x3d462828	0.04837814
131	0xbd811da6	-0.06304483
132	0x3e9d07e0	0.3067007
133	0xbee22d59	-0.44175223
134	0xbd4d4fc7	-0.05012491
135	0xbf026869	-0.5094057
136	0x3e41b4be	0.18916604
137	0x3fa3c25a	1.2793686
138	0xbe16a6ef	-0.14712118
139	0xbe9e68da	-0.3093937
140	0xbedf1e1f	-0.43577668
141	0x3eb69e08	0.35667443
142	0x3e125c84	0.14293104
143	0xbe933d72	-0.28757817
144	0x3f9ac26d	1.2090584
145	0xbf21ef25	-0.6325553
146	0xbf6dde2f	-0.9291715
147	0xbe10e0a1	-0.14148189
148	0xbcaf6c2a	-0.021413881
149	0x3f40321f	0.7507648
150	0xbde92a7b	-0.11385056
151	0xbf8e56ba	-1.1120217
152	0x3daaf57d	0.083476044
153	0xbf0df0b1	-0.5544539
154	0x3e68a9c0	0.22721004
155	0x3f1b3546	0.60628164
156	0x3f3199a1	0.69375044
157	0xbd20e2ae	-0.03927868
158	0x3e19c23e	0.15015504
159	0x3e33873f	0.17532061
160	0x3f29012e	0.66017425
161	0x3ed8e343	0.42360887
162	0xbee12c8f	-0.43979308
163	0xbc9b0728	-0.01892431
164	0xbe744483	-0.2385426
165	0x3d8730cb	0.066011034
166	0x3ba95a68	0.005168248
167	0xbfb1ca7c	-1.3889918
168	0xbf88d49d	-1.0689884
169	0x3f5ae351	0.8550311
170	0xbf906692	-1.1281302
171	0xbed5413b	-0.4165133
172	0x3d58a22b	0.05288903
173	0x3e518294	0.20459968
174	0xbdb39a4d	-0.08769665
175	0x3f0ca9c5	0.5494655
176	0xbed89374	-0.42299998
177	0xbfa91b4b	-1.3211454
178	0xbfe3e600	-1.7804565
179	0xbe19b8ae	-0.15011856
180	0x3e9be7c1	0.30450252
181	0xbf0cb34c	-0.54961085
182	0xbeb92b8e	-0.36166042
183	0xbedc95bb	-0.43082985
184	0xbf345bff	-0.70452875
185	0xbf1b4905	-0.60658294
186	0x3e3d9f1e	0.1851773
187	0x3f0fbd1d	0.5614794
188	0x3f3851c1	0.71999747
189	0x3ef4a371	0.47780946
190	0xbe05403c	-0.13012785
191	0x3ebf4661	0.37358382
192	0x3e0f54d5	0.13997205
193	0x3e6a80c5	0.22900684
194	0xbfa0daaa	-1.2566731
195	0x3ec46fc6	0.38366526
196	0xbef6f185	-0.4823114
197	0xbf8c4972	-1.0959914
198	0xbf5c50dc	-0.8606088
199	0x3e33350a	0.17500702
200	0x3ed75d38	0.42063308
201	0xbea51cb4	-0.3224846
202	0x3f14a3b0	0.5806227
203	0xbe58b695	-0.211634
204	0x3f29ff3b	0.66405076
205	0x3d7fac8b	0.06242041
206	0xbe193b88	-0.14964116
207	0x3faf67a2	1.3703501
208	0x3f05e218	0.52298117
209	0xbec6488e	-0.3872723
210	0xbee6036e	-0.44924492
211	0xbf265e69	-0.6498781
212	0x3cf26426	0.02958877
213	0xbf24530c	-0.6418922
214	0xbe71e23c	-0.23621458
215	0x3edda5a0	0.43290424
216	0x3ea7a1eb	0.3274072
217	0xbe9fe865	-0.3123199
218	0x3ddd5c2d	0.10808597
219	0xbe04d2e6	-0.12971076
220	0xbf94ee42	-1.163521
221	0x3e00f5c9	0.1259376
222	0x3e50b74f	0.20382427
223	0xbebe40ca	-0.37158805
224	0x3e86dabe	0.26338762
225	0x3ea9d9c5	0.33173957
226	0x3f847cd9	1.03506
227	0xbeee32e2	-0.46523196
228	0x3db6c210	0.08923733
229	0xbf1ba93d	-0.6080511
230	0xbedd03f3	-0.43167076
231	0x3edbef28	0.429559
232	0x3ea22393	0.31667766
233	0xbe3e4b7f	-0.18583487
234	0xbf0efbc7	-0.5585293
235	0xbe814339	-0.252466
236	0x3e8b03c6	0.27151316
237	0x3efcbc03	0.49362192
238	0x3e998688	0.29985452
239	0xbe1c9292	-0.15290287
240	0x3eb170db	0.34656414
241	0x3f05d5c2	0.52279294
242	0xbf181ecc	-0.5942199
243	0xbf086322	-0.53276265
244	0x3e9e9278	0.30971122
245	0x3d9dddf4	0.0770835
246	0x3f3b33c4	0.73125863
247	0x3f85e160	1.0459404
248	0xbeb3ac03	-0.35092172
249	0xbfd0ced2	-1.6313117
250	0xbeb9bc91	-0.36276677
251	0xbf07bd26	-0.5302299
252	0x3e014079	0.1262225
253	0x3e512a91	0.20426394
254	0xbe1ce1d6	-0.15320525
255	0x3e2d72c2	0.16938308

lstm.weight_hh_l0 f4 [512, 128]
0	0xbec0f29f	-0.37685105
1	0x3e93a0f6	0.2883374
2	0xbf936afc	-1.1517024
3	0xbeafee28	-0.34361386
4	0x3ecd02be	0.40041155
5	0x3e96240e	0.29324383
6	0xbf8e1aee	-1.1101968
7	0xbe06ed2c	-0.13176411
8	0x3f5bd84b	0.8587691
9	0x3f95b5d5	1.1696116
10	0x3f58d0b5	0.8469346
11	0xbeb206bf	-0.34770772
12	0xbf17e491	-0.5933314
13	0xbf77c59f	-0.9678592
14	0xbedf61a3	-0.43629178
15	0x3eec5926	0.46161765
16	0xbe0920bd	-0.13391395
17	0xbe925062	-0.28576952
18	0xbe58ea94	-0.21183234
19	0xbcd50707	-0.026004327
20	0x3e34ca06	0.17655191
21	0x3d63e447	0.055637624
22	0x3e54d807	0.20785533
23	0x3e6dedf5	0.23235305
24	0xbf66b6bb	-0.90122575
25	0xbe408f29	-0.18804611
26	0xbe72cb4f	-0.23710369
27	0x3e6f2396	0.23353419
28	0x3d0894a7	0.03334489
29	0x3e4f1aa5	0.20225008
30	0x3f57d3ba	0.84307444
31	0xbe872cee	-0.26401466
32	0x3ee79280	0.45228958
33	0xbc94e5f3	-0.018176055
34	0xbf46cf76	-0.7766031
35	0x3e16a330	0.14710689
36	0x3fa6b9c0	1.3025436
37	0xbedf5e5c	-0.43626678
38	0x3f762388	0.96147966
39	0xbe9b3bad	-0.30318967
40	0x3f60ddad	0.8783825
41	0xbc669b92	-0.014075177
42	0x3da8a6c4	0.08234933
43	0xbf4a4f6b	-0.7902743
44	0x3ed61c46	0.41818446
45	0x3f2f8698	0.6856475
46	0x3f72c835	0.9483674
47	0xbf5d5c09	-0.8646856
48	0xbef76310	-0.48317766
49	0xbecda765	-0.40166774
50	0x3f5ac6f2	0.85459816
51	0xbd5875a7	-0.052846577
52	0xbeaf3363	-0.34218892
53	0xbe9abce7	-0.30222246
54	0x3e6477cc	0.22311324
55	0xbed17114	-0.40906584
56	0xbe39c2a5	-0.18140657
57	0xbec88e85	-0.39171234
58	0xbe9fcac2	-0.3120938
59	0x3e0a019c	0.13477176
60	0x3eee4976	0.4654042
61	0xbe5812a1	-0.21100856
62	0x3cec05d2	0.02881137
63	0x3f36187a	0.711311
64	0xbf7e741f	-0.99395937
65	0x3dad1a15	0.084522404
66	0xbed76d5f	-0.4207563
67	0x3fc87ce6	1.5663116
68	0x3cd2ac9f	0.025717078
69	0x3f18a9a8	0.59633875
70	0x3e2d9597	0.16951595
71	0xbf32f909	-0.6991125
72	0x3f4262f5	0.75932246
73	0x3e66d657	0.22542702
74	0xbded2612	-0.11579527
75	0x3f21e0b8	0.6323352
76	0xbe807639	-0.25090197
77	0xbe90d5da	-0.28288156
78	0xbf1aacb2	-0.6041976
79	0xbe975198	-0.2955444
80	0xbcb3d018	-0.021949813
81	0x3eb4d008	0.35314965
82	0x3f02a471	0.5103217
83	0xbd2c4306	-0.042056106
84	0xbef884b1	-0.48538736
85	0xbf12feed	-0.57420236
86	0x3cec042a	0.02881058
87	0x3e506a86	0.20353135
88	0x3f60a23e	0.8774756
89	0xbf3f5497	-0.7473845
90	0xbec839c0	-0.3910656
91	0xbea924de	-0.3303594
92	0x3d5f5f60	0.054534316
93	0xbf2a1652	-0.6644031
94	0xbf209ac3	-0.6273615
95	0xbe9b2778	-0.3030355
96	0x3f14516c	0.5793674
97	0x3e5e6b09	0.21720518
98	0x3c23f884	0.010007981
99	0x3f06d395	0.526666
100	0x3f8d299a	1.1028321
101	0x3d68ca8b	0.056833785
102	0x3f456b54	0.77116895
103	0x3d086a09	0.033304248
104	0x3e787d29	0.24266495
105	0x3ee74867	0.45172426
106	0x3f1c58a8	0.6107278
107	0x3ef4510e	0.4771809
108	0xbfaeebf6	-1.366576
109	0xbe145a9f	-0.14487694
110	0x3f3a8f50	0.7287493
111	0x3eff9f8d	0.49926415
112	0xbf1e2cc4	-0.61787057
113	0x3e62137d	0.22077747
114	0xbe2495cb	-0.16072766
115	0x3e926883	0.2859536
116	0x3efa3afc	0.48873127
117	0x3e8beb35	0.27327886
118	0x3fc2f0b1	1.5229703
119	0xbf322f49	-0.696034
120	0xbf0004e8	-0.50007486
121	0xbe9fbb23	-0.3119746
122	0x3f2cf34a	0.6755873
123	0xbfba9d01	-1.4579164
124	0xbf3f56bd	-0.7474173
125	0x3ef638e1	0.4809027
126	0xbcb1d935	-0.021710018
127	0x3f57a5dd	0.8423746
128	0x3ef8efda	0.48620492
129	0x3de3813a	0.111086324
130	0xbf821c9c	-1.0164981
131	0x3eb7f3a8	0.35928082
132	0xbe01997a	-0.12656203
133	0x3fc19f4b	1.5126737
134	0x3f372802	0.7154542
135	0xbf22844c	-0.6348312
136	0x3f54277c	0.8287275
137	0x3f30122e	0.6877774
138	0x3f31fb94	0.695245
139	0xbf0267aa	-0.5093943
140	0x3dd9a1f5	0.10626594
141	0x3f06c340	0.5264168
142	0xbf3585e1	-0.7090741
143	0x3e7e6318	0.24842489
144	0x3ec02be2	0.3753348
145	0x3d97d95d	0.07414506
146	0xbd231909	-0.039818797
147	0xbd5e7e02	-0.05431939
148	0xbe020c09	-0.12699904
149	0x3ee16369	0.44021156
150	0xbf1fa500	-0.62361145
151	0x3cc75163	0.0243308
152	0xbf74291f	-0.95375246
153	0x3ec320d8	0.38110995
154	0xbec090e2	-0.37610537
155	0x3e65488c	0.22390956
156	0xbed4b8d0	-0.4154725
157	0x3ba28fa8	0.004960973
158	0xbf83d0f8	-1.0298147
159	0xbe720773	-0.23635654
160	0x3f7d7be6	0.9901718
161	0xbfb8460b	-1.4396375
162	0x3d9fbd4d	0.07799778
163	0x3e7dd99c	0.24790043
164	0x3e7417a8	0.23837149
165	0xbeb9696b	-0.3621324
166	0xbdf9c7d8	-0.1219632
167	0xbe8496d2	-0.25896317
168	0xbefb44ea	-0.49076015
169	0xbd56f13e	-0.05247616
170	0xbe3a4b7c	-0.18192858
171	0xbefe01a5	-0.4961063
172	0x3ec41e84	0.38304532
173	0x3e833a5b	0.2563046
174	0x3e61d6d2	0.22054604
175	0xbeccb4d3	-0.39981708
176	0x3e9c4e55	0.30528513
177	0x3e5b63de	0.21424815
178	0x3f8ce7e7	1.1008271
179	0x3f2aa219	0.6665359
180	0xbf71b982	-0.9442369
181	0x3f81f55c	1.0153003
182	0x3eed460e	0.4634251
183	0xbf40108e	-0.7502526
184	0xbf837a8e	-1.0271776
185	0xbf3106f8	-0.6915126
186	0x3ea890ed	0.3292307
187	0xbf220605	-0.63290435
188	0x3f270ce3	0.6525404
189	0x3f08373f	0.532093
190	0x3f971fc7	1.1806573
191	0xbf9d1740	-1.227272
192	0x3ebd26cb	0.3694366
193	0xbf6836d6	-0.90708673
194	0xbe97c586	-0.29642886
195	0xbf0b1239	-0.5432468
196	0x3f3022a4	0.6880286
197	0xbf72b06a	-0.94800436
198	0x3f4e42e0	0.80570793
199	0xbeaf6604	-0.3425752
200	0xbdff521b	-0.12466832
201	0x3f1baaab	0.60807294
202	0x3e9888dc	0.29791915
203	0x3cd4e936	0.02599011
204	0xbebf68d8	-0.37384677
205	0xbf08efd7	-0.53490967
206	0xbec51fd6	-0.3850085
207	0xbe0f46a7	-0.13991795
208	0x3de08703	0.109632514
209	0x3f6793fa	0.9046017
210	0xbe5a634a	-0.21326938
211	0xbe89b23d	-0.26893798
212	0xbf5f26cc	-0.87168574
213	0xbe94678c	-0.2898525
214	0x3c8f8f08	0.017524257
215	0xbe75f049	-0.24017443
216	0xbf86a2db	-1.051845
217	0x3ec23c73	0.37936744
218	0xbe83a5e3	-0.257125
219	0x3d1e875d	0.03870331
220	0x3ed31af5	0.41231504
221	0x3f07f881	0.5311356
222	0xbed3630c	-0.41286504
223	0xbf13c14b	-0.57716817
224	0xbf4e1a88	-0.80509233
225	0xbee2afa3	-0.44274625
226	0xbd310bc9	-0.04322413
227	0xbf2600bf	-0.6484489
228	0x3d22cb92	0.03974492
229	0xbf1275cf	-0.5721101
230	0xbd6fa145	-0.058503408
231	0xbdc3d81f	-0.09562706
232	0xbf1997e5	-0.599974
233	0x3f0fdcd9	0.5619636
234	0xbebd89e9	-0.3701928
235	0xbcaddb52	-0.021222744
236	0xbe088145	-0.13330562
237	0x3e4b8179	0.19873609
238	0x3ea4b6c4	0.3217069
239	0xbd9b520d	-0.07584009
240	0xbe9cfc53	-0.30661258
241	0x3f5baec1	0.8581353
242	0xbf469480	-0.77570343
243	0x3ebda05d	0.3703641
244	0x3f01859a	0.50594485
245	0xbf471274	-0.7776253
246	0xbeafefdc	-0.34362686
247	0x3eda2135	0.4260346
248	0xbef3acd7	-0.47592804
249	0xbc97e6a2	-0.018542591
250	0xbf00f147	-0.5036816
251	0x3efdc7b1	0.49566415
252	0xbfbec26f	-1.4903086
253	0x3f161fb7	0.58642143
254	0x3dd94f4f	0.1061083
255	0x3e8139d7	0.2523944

lstm.bias_ih_l0 f4 [512]
0	0xbe1d7016	-0.15374789
1	0xbf337b76	-0.7011026
2	0xbed86b5e	-0.42269415
3	0xbf345c95	-0.7045377
4	0xbf2cf82e	-0.6756619
5	0xbf0b851e	-0.54499996
6	0xbf1b500b	-0.6066901
7	0xbf26486c	-0.64954257
8	0xbf0b7d22	-0.5448781
9	0xbf029e7c	-0.5102308
10	0xbf81f2e9	-1.0152255
11	0xbf842d49	-1.032632
12	0xbf02eba4	-0.5114081
13	0xbf1b279b	-0.6060731
14	0xbf4ccd9e	-0.80001247
15	0xbf7d6870	-0.98987484
16	0xbe46128d	-0.19343014
17	0xbef8b593	-0.4857603
18	0xbe1a0da5	-0.15044267
19	0xbf0593c5	-0.52178603
20	0xbf3e5c4a	-0.7435957
21	0xbdca4908	-0.09877211
22	0xbf6caba5	-0.9244941
23	0xbf20d971	-0.6283179
24	0xbf69f410	-0.91388035
25	0xbe8627b7	-0.26202175
26	0xbf77ee3a	-0.9684788
27	0xbe4b2e8b	-0.19841973
28	0xbf39624c	-0.72415614
29	0xbf30fc51	-0.69135004
30	0xbf7f0806	-0.9962162
31	0xbf115150	-0.567647
32	0xbfb9fc2e	-1.4530084
33	0xbf4d7f6c	-0.80272555
34	0xbf8ea857	-1.1145123
35	0xbf855ae4	-1.0418363
36	0xbf8519cf	-1.0398501
37	0x3e1f43fc	0.15553278
38	0xbf64f7b3	-0.8944046
39	0xbf6cf8d8	-0.92567205
40	0xbf0e8bdf	-0.55682176
41	0xbf5d2fa9	-0.8640085
42	0xbfa6cd29	-1.303136
43	0xbf9efa72	-1.242018
44	0xbf1b2d5c	-0.6061609
45	0xbdaba272	-0.08380593
46	0xbf83e00b	-1.0302747
47	0xbf592dba	-0.848354
48	0xbea7d287	-0.32777807
49	0xbf5df07f	-0.8669509
50	0xbeb85eb1	-0.36009744
51	0xbeddd64f	-0.43327567
52	0xbf038f69	-0.513907
53	0xbf0e21fa	-0.55520594
54	0xbf0921bc	-0.535671
55	0xbf6dee49	-0.9294172
56	0xbf0613c2	-0.523739
57	0xbf04ed9f	-0.5192508
58	0xbf51a282	-0.8188859
59	0xbf3bc775	-0.7335122
60	0xbf452897	-0.7701506
61	0xbf46e16d	-0.7768772
62	0xbf7f2e19	-0.99679714
63	0xbf0d5a92	-0.55216324
64	0xbd01b5ba	-0.03166745
65	0xbf9990f6	-1.1997364
66	0xbeae9da4	-0.34104645
67	0xbf3d2bdb	-0.73895043
68	0xbf601760	-0.8753567
69	0xbeac3d99	-0.33640745
70	0xbea4109e	-0.32043928
71	0xbea47b3a	-0.32125264
72	0xbf71f462	-0.94513524
73	0xbf875ed7	-1.0575818
74	0xbf476ce0	-0.77900505
75	0x3d5be806	0.05368807
76	0xbf38942e	-0.72101104
77	0xbf135df6	-0.5756525
78	0xbea24bd5	-0.3169848
79	0xbf26134a	-0.6487318
80	0xbf2f18f9	-0.6839748
81	0xbf2c1195	-0.6721433
82	0xbf55a43a	-0.83453715
83	0x3ecd8afd	0.40145102
84	0xbf3f453a	-0.74715006
85	0xbeae8288	-0.34083962
86	0xbe824e82	-0.25450522
87	0xbf2e6860	-0.68128014
88	0xbf27cbb9	-0.6554523
89	0xbf380083	-0.7187578
90	0xbeaa3c68	-0.3324921
91	0xbf804663	-1.002148
92	0xbecf7a64	-0.40523064
93	0xbf826a0e	-1.0188615
94	0xbf1e016a	-0.6172091
95	0xbf195a81	-0.59903723
96	0xbfabdf7f	-1.342758
97	0xbf4bfd28	-0.7968316
98	0xbf5194f2	-0.818679
99	0xbf191867	-0.5980286
100	0xbf468a62	-0.77554905
101	0xbf6852f6	-0.9075159
102	0xbf9b7fb4	-1.2148347
103	0xbfa7b82b	-1.3103079
104	0x3e47f703	0.19527821
105	0xbf2cdce9	-0.6752458
106	0xbf0fb6ed	-0.561385
107	0xbfb6271b	-1.4230684
108	0xbf33c2ba	-0.70219004
109	0xbf3f93af	-0.7483472
110	0xbebce6a9	-0.3689473
111	0xbf8e6681	-1.1125032
112	0xbf1909ec	-0.59780765
113	0xbf8bb927	-1.0915879
114	0xbf771a65	-0.9652465
115	0xbf9b9124	-1.2153668
116	0xbf2be8d5	-0.6715215
117	0xbe923340	-0.28554726
118	0xbe5147a3	-0.20437483
119	0xbef3090a	-0.47467834
120	0xbeecc8ef	-0.4624705
121	0xbf70d3ee	-0.9407338
122	0xbeba3920	-0.36371708
123	0xbea34cf0	-0.31894636
124	0xbe326330	-0.1742065
125	0xbf24eec4	-0.6442683
126	0xbf3c95e3	-0.7366621
127	0xbf75249e	-0.95759
128	0xbecfe434	-0.40603793
129	0xbf8e3a5c	-1.111156
130	0xbed38bdb	-0.4131764
131	0xbfcacdca	-1.5844052
132	0xbee949fb	-0.45564255
133	0xbe53fd4e	-0.20702097
134	0xbf26e833	-0.6519806
135	0xbf24ad24	-0.6432669
136	0xbee616ee	-0.4493937
137	0x3dd0d83d	0.10197494
138	0xbeb7199e	-0.35761732
139	0xbfb10e2e	-1.3832452
140	0xbf370409	-0.7149053
141	0xbeacf070	-0.3377719
142	0xbf7ad393	-0.97979087
143	0xbeea284e	-0.45733875
144	0xbe3be0d1	-0.1834748
145	0xbf3879a3	-0.720606
146	0xbd843888	-0.06456095
147	0xbe8f00bc	-0.27930248
148	0xbe73cf28	-0.23809493
149	0xbf2e2ffa	-0.68041956
150	0xbf39bdf4	-0.7255547
151	0xbee82204	-0.45338452
152	0xbeae7584	-0.34074032
153	0xbf15149e	-0.58234584
154	0xbf7305cd	-0.94930726
155	0xbe1d6f16	-0.15374407
156	0xbf1849ed	-0.594878
157	0xbf3ed135	-0.74537975
158	0xbf7653d8	-0.96221685
159	0xbea8ed66	-0.3299362
160	0xbf601b09	-0.8754125
161	0xbe46e5a6	-0.19423541
162	0xbf9870d0	-1.1909428
163	0xbe9f536e	-0.3111834
164	0xbeddb988	-0.43305612
165	0xbf00cd82	-0.5031358
166	0xbf95bc5b	-1.1698107
167	0xbedb72ac	-0.42860925
168	0xbf101aea	-0.5629107
169	0xbf01ebe1	-0.5075055
170	0xbf43f9cc	-0.76553035
171	0xbd92d1f0	-0.07168949
172	0xbec68541	-0.3877354
173	0xbe66bae2	-0.22532228
174	0xbfd1b223	-1.6382488
175	0xbf4f8ceb	-0.810744
176	0xbf6dd4f2	-0.92903054
177	0xbf84583f	-1.033943
178	0xbeefa176	-0.46802872
179	0xbe863c83	-0.26218042
180	0xbd36fa8f	-0.044672545
181	0xbc93bd9f	-0.018034754
182	0xbf948b39	-1.1604987
183	0xbf3b15bb	-0.73080033
184	0xbf45738a	-0.77129424
185	0x3e859ef3	0.2609783
186	0xbf99c5c6	-1.2013481
187	0xbe336da4	-0.17522293
188	0x3f1b9452	0.60773194
189	0xbf57393d	-0.84071714
190	0xbf449196	-0.76784647
191	0xbec4cf0f	-0.38439223
192	0xbfbce373	-1.4756912
193	0xbf51d449	-0.81964546
194	0xbeb15c42	-0.346407
195	0x3ccc9a16	0.024975818
196	0xbf8aea5e	-1.0852773
197	0xbed7b3b7	-0.421293
198	0xbf77155b	-0.9651696
199	0xbe55ad08	-0.20866787
200	0xbeb06fc3	-0.34460267
201	0xbf400171	-0.750022
202	0xbd83f7f1	-0.064437754
203	0xbeda2ea2	-0.42613703
204	0xbf807482	-1.0035555
205	0x3ddce189	0.10785205
206	0xbf880132	-1.0625365
207	0xbe5a0524	-0.21291023
208	0xbf982449	-1.1886073
209	0xbfbd28be	-1.4778059
210	0xbec82600	-0.39091492
211	0xbf489414	-0.7835095
212	0xbf189d6b	-0.596152
213	0xbf941d45	-1.1571432
214	0xbf5b52eb	-0.856734
215	0xbf4bea8c	-0.79654765
216	0xbfadfef2	-1.3593428
217	0xbf1422dc	-0.5786569
218	0xbf50a5ac	-0.81502795
219	0xbf2054c3	-0.62629336
220	0xbf360be1	-0.71111876
221	0xbe9c676e	-0.3054766
222	0xbfc7bbc7	-1.560418
223	0xbf1b6b82	-0.6071092
224	0xbf8574ce	-1.0426271
225	0xbf4357f4	-0.7630608
226	0x3e8f2aa0	0.27962208
227	0xbfb18ce3	-1.387112
228	0xbf38f1bf	-0.72243875
229	0xbedda10f	-0.4328694
230	0xbf67f930	-0.90614605
231	0xbf9b8868	-1.2151003
232	0xbf0e80c8	-0.55665255
233	0xbf80cd79	-1.0062705
234	0x3e8d2db5	0.27573934
235	0xbf678b9e	-0.90447414
236	0xbe989ce3	-0.29807195
237	0xbf173238	-0.59061
238	0xbf269297	-0.6506743
239	0xbec9518d	-0.3932003
240	0xbee036ab	-0.43791708
241	0xbf5b78d6	-0.85731256
242	0x3f1b62d4	0.60697675
243	0x3e84c3fa	0.25930768
244	0xbf4749a4	-0.7784674
245	0xbbaed384	-0.005335273
246	0xbf952efa	-1.1654961
247	0xbf89697f	-1.073532
248	0xbf31acbb	-0.6940419
249	0xbe68076d	-0.22659083
250	0xbf6553eb	-0.89581174
251	0xbf802486	-1.0011146
252	0xbf86335f	-1.0484427
253	0x3f1251e0	0.5715618
254	0xbfda9fe5	-1.7080046
255	0xbf49849d	-0.78717977

lstm.bias_hh_l0 f4 [512]
0	0xbe6f54e4	-0.23372227
1	0xbf3efc90	-0.7460413
2	0xbed234de	-0.4105596
3	0xbf1d0ca7	-0.6134743
4	0xbf277510	-0.65413
5	0xbf0a2a9d	-0.5397127
6	0xbef748a1	-0.482976
7	0xbf2c8982	-0.6739732
8	0xbefc8009	-0.49316433
9	0xbef625a5	-0.48075595
10	0xbf8aeb4e	-1.0853059
11	0xbf949b42	-1.1609881
12	0xbf05a432	-0.5220367
13	0xbf2b097f	-0.66811365
14	0xbf2e508c	-0.68091655
15	0xbf778dda	-0.96700823
16	0xbe266012	-0.16247585
17	0xbeeefab1	-0.46675637
18	0xbe3dabed	-0.18522616
19	0xbef54fee	-0.47912544
20	0xbf40f73a	-0.7537724
21	0xbe28e240	-0.16492558
22	0xbf73a52b	-0.951739
23	0xbf002ea6	-0.5007118
24	0xbf61bb2e	-0.8817624
25	0xbe0532e3	-0.13007693
26	0xbf7b0eb4	-0.9806931
27	0xbe181d08	-0.14854825
28	0xbf31fe2a	-0.6952845
29	0xbf08ae38	-0.53390837
30	0xbf85658a	-1.0421612
31	0xbf0eb4f4	-0.5574486
32	0xbfabdcb8	-1.3426733
33	0xbf42e8ac	-0.7613628
34	0xbf98839f	-1.1915168
35	0xbf807bba	-1.0037758
36	0xbf75994b	-0.9593703
37	0x3e672cb2	0.22575644
38	0xbf461cb9	-0.7738758
39	0xbf5f89b8	-0.8731952
40	0xbf0cbe73	-0.549781
41	0xbf6471d3	-0.8923618
42	0xbfa858d7	-1.3152112
43	0xbf8e00ab	-1.1093954
44	0xbf1f37f2	-0.6219474
45	0x3c816088	0.0157931
46	0xbf86ab9d	-1.0521122
47	0xbf7ff4b5	-0.9998277
48	0xbeae4fcf	-0.34045264
49	0xbf4b161d	-0.7933062
50	0xbef5664a	-0.47929603
51	0xbe8dd37d	-0.27700415
52	0xbf00e52d	-0.50349694
53	0xbf006df9	-0.50167805
54	0xbf199656	-0.5999502
55	0xbf6d0e15	-0.9259961
56	0xbf060b6e	-0.5236119
57	0xbf05497c	-0.52065253
58	0xbf2c7bc0	-0.6737633
59	0xbf3fe39b	-0.74956673
60	0xbf3226cd	-0.69590455
61	0xbf34f9dd	-0.7069376
62	0xbf8cdbaf	-1.1004542
63	0xbf066937	-0.52504295
64	0xbe1033be	-0.14082238
65	0xbfa70bc0	-1.3050461
66	0xbeab156c	-0.3341478
67	0xbf2cf4ad	-0.67560846
68	0xbf6b246f	-0.9185247
69	0xbea294ef	-0.31754252
70	0xbea71bb4	-0.32638323
71	0xbea86798	-0.32891536
72	0xbf5b4d54	-0.8566487
73	0xbf873c10	-1.0565205
74	0xbf386ac2	-0.720379
75	0x3d1f020e	0.03882032
76	0xbf5e39ba	-0.86806834
77	0xbf19a1dd	-0.6001261
78	0xbef52afd	-0.4788436
79	0xbf25b7d8	-0.6473365
80	0xbf2a713d	-0.6657904
81	0xbf2d542d	-0.6770657
82	0xbf3d73e4	-0.7400496
83	0x3eda938f	0.42690703
84	0xbf39ce5a	-0.7258049
85	0xbe77b79c	-0.24191135
86	0xbebdce22	-0.3707133
87	0xbf296fe2	-0.66186345
88	0xbf13313f	-0.5749702
89	0xbf3bd1c5	-0.7336696
90	0xbea557ba	-0.32293493
91	0xbf904930	-1.1272335
92	0xbebda8a8	-0.37042737
93	0xbf8955ed	-1.0729347
94	0xbf18ed25	-0.59736854
95	0xbf17ebf1	-0.59344393
96	0xbfafe509	-1.3741771
97	0xbf52ee9c	-0.8239534
98	0xbf52088e	-0.82044303
99	0xbf1991e1	-0.5998822
100	0xbf3a56a2	-0.7278844
101	0xbf89cf80	-1.0766449
102	0xbf87727a	-1.058181
103	0xbf9bf691	-1.2184621
104	0x3e87d9fe	0.26533502
105	0xbf3354da	-0.7005135
106	0xbf16fd15	-0.5897992
107	0xbfae5727	-1.3620347
108	0xbf569e2a	-0.8383509
109	0xbf54608d	-0.82959825
110	0xbeaf9965	-0.34296718
111	0xbf92b2e2	-1.1460841
112	0xbf2176f0	-0.6307211
113	0xbf83da7f	-1.0301055
114	0xbf586967	-0.8453583
115	0xbf9770c0	-1.1831284
116	0xbf42d2d1	-0.7610293
117	0xbe714e2b	-0.23564975
118	0xbe6bb4fd	-0.2301826
119	0xbf0ddec3	-0.5541803
120	0xbf0868b3	-0.5328476
121	0xbf6f7618	-0.9353957
122	0xbebea156	-0.37232465
123	0xbec13fa8	-0.37743878
124	0xbdf3f727	-0.11912375
125	0xbf27c428	-0.65533686
126	0xbf1d82ff	-0.6152801
127	0xbf82505c	-1.0180774
128	0xbef1d354	-0.47231543
129	0xbf93eabb	-1.1556009
130	0xbeeb96a3	-0.46013364
131	0xbfdc2eca	-1.7201779
132	0xbeedeecf	-0.4647126
133	0xbdc6eac5	-0.097127475
134	0xbf249619	-0.6429153
135	0xbf2eb256	-0.6824087
136	0xbeebfb4a	-0.46090156
137	0x3e089b22	0.13340428
138	0xbeb3ac43	-0.35092363
139	0xbfa5c456	-1.2950542
140	0xbf3ff4cf	-0.74982923
141	0xbeb20ea4	-0.34776795
142	0xbf793557	-0.97347015
143	0xbeab100d	-0.33410683
144	0xbe497599	-0.19673766
145	0xbf16acb1	-0.58857256
146	0xbdd3168d	-0.103070356
147	0xbe94a634	-0.29033053
148	0xbdbda7ab	-0.09260496
149	0xbf405638	-0.7513156
150	0xbf21777e	-0.63072956
151	0xbed103d6	-0.4082324
152	0xbee4a06a	-0.44653636
153	0xbf0f45e2	-0.5596601
154	0xbf7a716b	-0.9782931
155	0xbd35bb36	-0.04436799
156	0xbf2229b1	-0.63344866
157	0xbf3745bd	-0.7159079
158	0xbf677bfe	-0.9042357
159	0xbea32044	-0.31860554
160	0xbf3cdbc4	-0.73772836
161	0xbe9577c7	-0.29192945
162	0xbf9dc248	-1.2324915
163	0xbe88b6ec	-0.26702058
164	0xbed397c8	-0.41326737
165	0xbf1e1431	-0.6174956
166	0xbf8b0dd6	-1.0863597
167	0xbed5c4a2	-0.4175158
168	0xbef8ee9d	-0.48619547
169	0xbecf70cf	-0.40515754
170	0xbf2f316e	-0.684348
171	0xbd9c1584	-0.07621291
172	0xbe7aec2b	-0.24504153
173	0xbe87c093	-0.2651411
174	0xbfd03cbd	-1.6268536
175	0xbf5ae9e3	-0.8551313
176	0xbf62e562	-0.8863126
177	0xbf65b07c	-0.8972242
178	0xbecb2816	-0.3967902
179	0xbe42db68	-0.1902901
180	0x3d3294a9	0.043598805
181	0xbd289f10	-0.04116732
182	0xbf9897c9	-1.1921321
183	0xbf4901a3	-0.7851812
184	0xbf388cd2	-0.72089875
185	0x3e31f238	0.17377555
186	0xbf910acc	-1.133142
187	0xbea3a59a	-0.3196228
188	0x3f1f8202	0.6230775
189	0xbf5ef13f	-0.8708686
190	0xbf551b20	-0.83244514
191	0xbed48561	-0.4150801
192	0xbfb2c0cc	-1.3965087
193	0xbf3f401d	-0.74707204
194	0xbeb46a48	-0.35237336
195	0x3c8c3e2b	0.017119488
196	0xbf8c17f8	-1.0944815
197	0xbeea6c7d	-0.45785895
198	0xbf8473db	-1.0347856
199	0xbda8a9ca	-0.0823551
200	0xbe9e9998	-0.30976558
201	0xbf3da5a5	-0.7408088
202	0xbe0d0d26	-0.13774547
203	0xbec443a7	-0.38332865
204	0xbf7f4775	-0.9971841
205	0x3e0a4d9f	0.13506173
206	0xbf8b7c14	-1.0897241
207	0xbde313ef	-0.110877864
208	0xbf885b9c	-1.0652957
209	0xbfb20450	-1.3907566
210	0xbee7e142	-0.45289046
211	0xbf4054ac	-0.751292
212	0xbf1c2a77	-0.61002296
213	0xbf86711c	-1.0503268
214	0xbf72ac2f	-0.9479398
215	0xbf69d6ba	-0.9134327
216	0xbfa929ae	-1.3215845
217	0xbed8e47b	-0.42361817
218	0xbf3b5496	-0.7317594
219	0xbf30b24f	-0.6902208
220	0xbf44803f	-0.7675819
221	0xbe8cacca	-0.27475578
222	0xbfcd2975	-1.6028277
223	0xbf0ed052	-0.5578662
224	0xbf8bbcb8	-1.0916967
225	0xbf460fc4	-0.77367806
226	0x3eb4fbc6	0.35348338
227	0xbfaf8b53	-1.3714393
228	0xbf19b519	-0.6004196
229	0xbf026c59	-0.50946575
230	0xbf7abcc0	-0.9794426
231	0xbf9aebe4	-1.2103238
232	0xbf0ffca6	-0.56244886
233	0xbf5b902f	-0.8576688
234	0x3ddf360f	0.10898983
235	0xbf71e2be	-0.94486606
236	0xbee12060	-0.43970013
237	0xbf22121a	-0.6330887
238	0xbf224b03	-0.6339571
239	0xbee8bff3	-0.45458946
240	0xbeffce57	-0.49962112
241	0xbf7f896e	-0.99819076
242	0x3f09f73d	0.5389288
243	0x3e8fe940	0.28107643
244	0xbf40159e	-0.75032985
245	0xbd3d73a4	-0.04625286
246	0xbf8bb265	-1.0913817
247	0xbf87e3e2	-1.0616419
248	0xbf3c3117	-0.73512405
249	0xbea7baa7	-0.32759592
250	0xbf767cb0	-0.9628401
251	0xbf879fcd	-1.0595642
252	0xbf856f71	-1.0424634
253	0x3ed83d8d	0.4223446
254	0xbfda6c57	-1.7064313
255	0xbf2f348b	-0.6843955

lstm.weight_ih_l1 f4 [512, 128]
0	0x3d0840e6	0.033265017
1	0x3ee54173	0.44776496
2	0x3f4b0443	0.7930338
3	0xbf5065c4	-0.8140528
4	0xbf547086	-0.829842
5	0xbe8b1e48	-0.2717154
6	0xbf3685e2	-0.7129804
7	0x3fb169c3	1.3860401
8	0xbfcc08cc	-1.5940185
9	0xbec90508	-0.3926165
10	0xbf0a6683	-0.5406267
11	0x3ec2ddd6	0.38059872
12	0x3f1671da	0.58767474
13	0x3d6b4e11	0.057447497
14	0x3ef7f29a	0.48427278
15	0xbf01110a	-0.50416625
16	0xbef63a2b	-0.48091254
17	0x3f321635	0.69565135
18	0x3d6fa24c	0.058504388
19	0x3f5370bc	0.82593894
20	0xbdf8d784	-0.12150481
21	0x3c581941	0.013189615
22	0x3f40f876	0.7537912
23	0x3fb0a528	1.3800402
24	0x3bc59f92	0.006030985
25	0xbec4c2cc	-0.38429868
26	0xbe8d3c46	-0.27585047
27	0xbf360425	-0.71100074
28	0x3ea67747	0.32512876
29	0xbf0d88bd	-0.5528677
30	0x3e778ebe	0.24175546
31	0x3f43b52f	0.7644834
32	0xbe15bc04	-0.14622504
33	0x3f015ee8	0.5053544
34	0x3e76c8ba	0.24100009
35	0x3e4af0d1	0.19818427
36	0x3e82d5dc	0.25553787
37	0x3e05ad8a	0.13054481
38	0xbe824026	-0.25439566
39	0x3e04d33d	0.12971206
40	0x3f08c910	0.534318
41	0xbf18635f	-0.5952663
42	0xbefa6c18	-0.48910594
43	0x3fa160f1	1.2607709
44	0xbf2b69a5	-0.66958076
45	0xbf57fbf8	-0.8436885
46	0x3d7903ea	0.06079475
47	0xbe81cadf	-0.2535009
48	0x3f1d83ba	0.61529124
49	0x3ca49ad4	0.020093359
50	0xbf55e5f8	-0.8355403
51	0x3f69abaa	0.91277564
52	0xbc427552	-0.011868792
53	0x3fb3a3b0	1.4034328
54	0xbf8877ee	-1.06616
55	0x3d207c69	0.039181147
56	0x3ca72493	0.020403182
57	0x3f45d093	0.77271384
58	0x3f1f5af9	0.6224819
59	0xbf2bc674	-0.6709969
60	0xbdf452d9	-0.119298644
61	0xbf878eff	-1.0590514
62	0x3f32a44d	0.69781953
63	0xbf302f5e	-0.68822277
64	0x3fbe4d18	1.4867277
65	0x3de48ff3	0.11160269
66	0xbf1952b4	-0.5989182
67	0xbec2cb21	-0.380456
68	0xbe36930d	-0.17829533
69	0xbd479d83	-0.0487342
70	0xbf582338	-0.8442874
71	0x3efdad1e	0.4954614
72	0x3db5236d	0.088446476
73	0xbef20545	-0.47269645
74	0x3ef9578e	0.4869961
75	0x3e09b059	0.13446178
76	0x3d1cd1fe	0.0382862
77	0xbe3cdaed	-0.18442889
78	0x3d6549af	0.055978473
79	0xbd37bd5f	-0.044858333
80	0x3cba433c	0.022737138
81	0xbe993c10	-0.29928637
82	0x3f92e26b	1.1475347
83	0xbed5ef9f	-0.4178438
84	0x3effc245	0.49952903
85	0xbdebfe03	-0.11523058
86	0x3d0a3755	0.033744175
87	0x3d9377ac	0.0720056
88	0xbce173ed	-0.027521098
89	0x3f0adba0	0.5424137
90	0x3bac2a1e	0.005254044
91	0xbf1b3641	-0.6062966
92	0xbeeea625	-0.46611133
93	0xbf3ae036	-0.7299837
94	0x3f162dd6	0.5866369
95	0x3ec03b1a	0.3754509
96	0xbf938fb8	-1.1528234
97	0xbe5af908	-0.2138406
98	0x3dac3122	0.08407809
99	0xbf8149db	-1.0100664
100	0x3f8e8554	1.1134439
101	0x3ce058a0	0.02738601
102	0xbf8b1955	-1.0867106
103	0xbb41d725	-0.00295777
104	0xbe002d15	-0.12517197
105	0x3f8170d5	1.0112559
106	0x3df0ef89	0.11764438
107	0xbf98fcd4	-1.1952157
108	0x3e83be6d	0.2573122
109	0x3e249d34	0.16075593
110	0x3e04b1cf	0.12958454
111	0xbf57b025	-0.8425315
112	0x3ddc1dc1	0.107478626
113	0x3e9898e0	0.29804134
114	0xbf21a9b8	-0.63149595
115	0xbdde2805	-0.10847477
116	0xbf5fded4	-0.87449384
117	0x3f720b4a	0.94548476
118	0x3e00af0f	0.1256678
119	0x3eff3186	0.4984247
120	0x3ec878a2	0.39154536
121	0xbdb3e3ca	-0.08783682
122	0xbe29d54e	-0.16585276
123	0xbe5430aa	-0.20721689
124	0xbfbdd202	-1.4829714
125	0x3fde3a7f	1.7361602
126	0x3e68f457	0.22749458
127	0x3d8e709b	0.069550715
128	0x3e689cfb	0.22716133
129	0xbf4dfcac	-0.8046367
130	0x3f6ff197	0.9372801
131	0x3ebd070a	0.36919433
132	0xbe9a31fa	-0.30116254
133	0x3faaccf0	1.3343792
134	0xbf83017c	-1.0234828
135	0x3e9c80ab	0.30566916
136	0x3f723a2d	0.9462002
137	0xbe9701b8	-0.294935
138	0x3f226b71	0.6344519
139	0x3e58227d	0.21106906
140	0xbea5434a	-0.322779
141	0x3edc0618	0.429734
142	0xbf4e0269	-0.8047243
143	0xbe164a84	-0.14676863
144	0xbf4ad21a	-0.7922684
145	0x3f166651	0.5874987
146	0x3ee0cfa1	0.43908408
147	0x3ed1a39c	0.40945137
148	0x3f178d9b	0.5920045
149	0x3e9f5099	0.3111618
150	0x3d9a31d3	0.075290345
151	0xbdfb86e5	-0.122815885
152	0x3f48c22b	0.78421277
153	0xbf1d73ad	-0.6150463
154	0x3f110695	0.5665067
155	0xbf052f2c	-0.52025104
156	0x3fb32fc7	1.3998955
157	0x3f82d24a	1.0220425
158	0x3f19b424	0.600405
159	0x3f778887	0.966927
160	0x3f069c0d	0.52581865
161	0x3e2017c4	0.15634066
162	0x3efbd427	0.49185297
163	0x3db22122	0.08697726
164	0x3f21b7d0	0.631711
165	0xbeeb2be5	-0.45931926
166	0xbe90fa6d	-0.2831606
167	0x3eba0750	0.36333704
168	0x3f004f40	0.50120926
169	0xbebe2203	-0.37135324
170	0xbf2e5431	-0.68097216
171	0xbe51ff72	-0.20507601
172	0x3f9a3f7a	1.2050622
173	0x3f3cb475	0.73712856
174	0x3f49f393	0.7888729
175	0xbea3f92c	-0.3202604
176	0xbf5af3d2	-0.8552829
177	0xbe2f905e	-0.17144915
178	0x3db99db3	0.09063282
179	0xbf12093b	-0.57045335
180	0x3eb42b06	0.35189074
181	0x3d9f5b6e	0.07781111
182	0xbd5ffdd1	-0.054685418
183	0x3ea2ae61	0.31773666
184	0xbed93843	-0.42425737
185	0x3ee958c4	0.45575535
186	0xbf64b7a4	-0.89342713
187	0xbeb8f441	-0.3612385
188	0xbc0cf9a8	-0.008604445
189	0x3f4b5089	0.7941976
190	0xbea1a52b	-0.31571326
191	0xbfa2bc21	-1.2713662
192	0xbea03b93	-0.31295452
193	0xbe5bd3c1	-0.21467496
194	0xbf4f290f	-0.80922025
195	0xbeb7aca3	-0.358739
196	0xbebc23d4	-0.36746085
197	0xbf027d3b	-0.50972337
198	0xbdad7252	-0.084690705
199	0x3f1489b8	0.5802264
200	0xbdfd9765	-0.12382392
201	0xbf267117	-0.6501631
202	0xbed2eb34	-0.4119507
203	0xbfa8dac3	-1.3191761
204	0x3f3689bd	0.7130392
205	0xbda67bd5	-0.08129088
206	0xbdff7959	-0.12474317
207	0xbf2c515e	-0.67311656
208	0x3c3db63b	0.011579092
209	0xbe888c87	-0.26669714
210	0x3eee8b61	0.46590713
211	0xbdab05b1	-0.08350695
212	0xbdf34888	-0.118790686
213	0x3c796e28	0.015224017
214	0x3f153255	0.58279926
215	0xbf3cee64	-0.73801255
216	0x3f1800d9	0.59376293
217	0xbffff9b1	-1.9998075
218	0xbf24b90d	-0.64344865
219	0xbe5dfee4	-0.21679264
220	0xbf5ba0d0	-0.85792255
221	0x3fdf582f	1.7448786
222	0x3f66a0ab	0.9008891
223	0xbf826f2d	-1.0190178
224	0x3f0ddf5b	0.5541894
225	0xbf3031b4	-0.6882584
226	0xbf390fdc	-0.72289824
227	0xbf467bc8	-0.77532625
228	0xbe003cf8	-0.12523258
229	0x3c9484c4	0.018129714
230	0x3fcce884	1.6008458
231	0xbd20c014	-0.03924568
232	0xbec859d1	-0.39131024
233	0x3e996c76	0.29965562
234	0x3da08217	0.07837313
235	0x3e26e105	0.16296776
236	0x3e21d069	0.15802158
237	0x3f085d5f	0.53267473
238	0x3e32169b	0.17391436
239	0xbdac3e73	-0.08410349
240	0xbfd0f911	-1.6326009
241	0xbdcbda09	-0.09953696
242	0xbead8b6d	-0.33895436
243	0x3f284c64	0.6574156
244	0x3f960a42	1.172188
245	0xbb10d3bc	-0.002209886
246	0x3ed234fd	0.41056052
247	0xbe4728da	-0.19449177
248	0xbf9c431f	-1.2207984
249	0xbd4a880e	-0.049446158
250	0x3f47f45f	0.78107256
251	0xbfb34043	-1.4003986
252	0xbe452ef9	-0.192562
253	0xbfa0fcb4	-1.2577119
254	0xbf1407c5	-0.57824355
255	0x3e5e1ddd	0.2169108

lstm.weight_hh_l1 f4 [512, 128]
0	0x3ca6ec93	0.02037648
1	0x3e9fe02f	0.31225726
2	0xbfa90807	-1.3205575
3	0x3e402901	0.18765642
4	0xbbdaacc9	-0.0066734296
5	0xbf77eea7	-0.9684853
6	0xbe8c4725	-0.2739803
7	0xbe97d5af	-0.29655215
8	0x3e8f588e	0.2799725
9	0xbf1611a3	-0.5862066
10	0x3e70835d	0.23487611
11	0x3e9a7976	0.30170792
12	0xbf58258e	-0.84432304
13	0x3dcf69d3	0.10127606
14	0xbe4a175e	-0.19735476
15	0x3eb58ae1	0.3545752
16	0xbf82d199	-1.0220214
17	0xbe62c21b	-0.22144358
18	0xbf52cec8	-0.82346773
19	0xbea53ae0	-0.3227148
20	0xbec11358	-0.3771007
21	0xbf1e8721	-0.6192494
22	0xbcbe8d8f	-0.02326086
23	0x3f87e73b	1.0617441
24	0x3ea4fe44	0.3222524
25	0x3e616be5	0.22013815
26	0x3e64e151	0.22351576
27	0xbf1e5cb3	-0.618602
28	0xbd9f8800	-0.07789612
29	0x3b85e4ae	0.0040860986
30	0xbf5554eb	-0.833327
31	0x3af5c519	0.0018750756
32	0x3e1dfcbf	0.15428446
33	0x3f058798	0.52160025
34	0x3e036f9a	0.12835541
35	0xbf955df9	-1.1669303
36	0x3e8bb03f	0.27282903
37	0xbdf20ff2	-0.118194476
38	0x3e959a1e	0.29219145
39	0xbf02b79a	-0.51061404
40	0x3f244553	0.6416828
41	0xbf36537a	-0.71221125
42	0xbdc09bae	-0.094046935
43	0x3eaa4da2	0.33262354
44	0xbe1f35d3	-0.15547876
45	0x3e99ec33	0.30063018
46	0xbe673873	-0.22580127
47	0xbd9d778a	-0.07688816
48	0x3e6b8ba3	0.23002486
49	0xbe8afc1d	-0.27145472
50	0xbebb52bd	-0.36586562
51	0xbee765d1	-0.45194867
52	0xbe12d9ff	-0.14340971
53	0x3e6f9cb9	0.23399629
54	0x3f17c9fe	0.5929259
55	0x3e599b33	0.2125061
56	0x3e02b7fb	0.12765495
57	0xbedf7c86	-0.4364969
58	0x3f6f456b	0.934653
59	0xbdc228eb	-0.09480461
60	0xbe2a1d05	-0.16612633
61	0xbf484763	-0.7823393
62	0xbd8e232f	-0.069403045
63	0xbeb40cfb	-0.35166153
64	0xbd40a882	-0.0470357
65	0xbf21a675	-0.6314462
66	0xbf405dfc	-0.7514341
67	0xbdbf270d	-0.0933362
68	0xbdea81c8	-0.11450535
69	0xbe9dd9cf	-0.30830237
70	0xbec50054	-0.38476813
71	0xbf071471	-0.52765566
72	0x3efd1e86	0.4943735
73	0xbdeab937	-0.11461108
74	0xbf66a62c	-0.9009731
75	0x3d8acbec	0.06777176
76	0xbe7997aa	-0.24374261
77	0xbdf4a789	-0.11946017
78	0xbe847d61	-0.25876907
79	0x3eda0599	0.42582396
80	0xbe84e9d5	-0.2595965
81	0xbe61a380	-0.22035027
82	0xbf5058bd	-0.81385404
83	0x3f0a2361	0.53960234
84	0xbdf6b640	-0.1204648
85	0xbe934f51	-0.2877145
86	0xbdf9b16e	-0.12192045
87	0xbf390760	-0.7227688
88	0x3f2d06a8	0.6758828
89	0xbf1a8cd6	-0.6037115
90	0xbf35fea0	-0.7109165
91	0x3f60cf68	0.87816477
92	0xbe95e64f	-0.29277274
93	0x3d8a6ae3	0.06758668
94	0xbf25869a	-0.6465851
95	0x3e5aba1e	0.2136006
96	0xbed8e536	-0.42362374
97	0x3ed24f58	0.4107616
98	0xbf4122cd	-0.75443727
99	0x3cae876a	0.021304805
100	0x3ed889ab	0.42292532
101	0xbf87b636	-1.0602481
102	0x3b90e2f5	0.0044215866
103	0xbc63a7a6	-0.013894951
104	0xbf32e750	-0.69884205
105	0x3f8dee24	1.10883
106	0xbeb7a622	-0.35868937
107	0xbe7b09e2	-0.24515489
108	0xbe6c261f	-0.23061417
109	0x3f7d4edb	0.9894845
110	0xbdb8d577	-0.0902509
111	0xbe980b21	-0.2969599
112	0x3f5b86d8	0.8575263
113	0x3e448f13	0.19195203
114	0xbe161e5b	-0.14660017
115	0x3e92d1bf	0.2867565
116	0x3dc7ce42	0.097561374
117	0xbf902a91	-1.126299
118	0x3e5b3ad4	0.2140916
119	0xbf15d267	-0.58524173
120	0xbf3828c0	-0.7193718
121	0x3e0394ea	0.12849775
122	0x3eb6f8cf	0.357367
123	0x3f021562	0.5081388
124	0x3f3eba44	0.7450297
125	0x3efa50fa	0.48889905
126	0xbf000e35	-0.5002168
127	0x3ca2b4d9	0.019861626
128	0x3fb75866	1.4323852
129	0xbea000a3	-0.31250486
130	0x3f1e48af	0.61829656
131	0x3effbaec	0.49947298
132	0xbc967b10	-0.018369228
133	0xbf23ecc5	-0.64033157
134	0x3f0227c6	0.5084194
135	0xbf3b7570	-0.7322607
136	0x3f4cf8f5	0.8006738
137	0xbe8f4d48	-0.27988648
138	0x3f271482	0.6526567
139	0x3f1eb206	0.6199039
140	0x3f1faa35	0.6236909
141	0xbd78cde8	-0.060743243
142	0x3e4d320d	0.20038624
143	0xbedd9de1	-0.43284515
144	0xbee9bbd1	-0.45651105
145	0x3f207064	0.62671494
146	0x3ea31fdf	0.31860253
147	0x3ece25c6	0.40263194
148	0x3e874a74	0.2642399
149	0xbefb0a59	-0.49031332
150	0xbf2e500e	-0.68090904
151	0xbd8fd595	-0.070231594
152	0x3eb1cd97	0.34727165
153	0x3f06a4b2	0.52595055
154	0x3e58ebd4	0.21183711
155	0x3f531fc2	0.82470334
156	0x3f8cd189	1.1001445
157	0x3f79e30e	0.9761208
158	0xbf1fe63e	-0.62460697
159	0xbf261c17	-0.6488661
160	0x3e0b897f	0.1362667
161	0x3f11ca0d	0.5694893
162	0x3e9691c1	0.29408076
163	0xbf3913fe	-0.7229613
164	0x3e761e7b	0.24035065
165	0x3f0ba4cf	0.5454835
166	0xbe9439bd	-0.289503
167	0xbf25c616	-0.6475538
168	0xbf09dd88	-0.53853655
169	0xbf157e18	-0.5839553
170	0x3f346eec	0.70481753
171	0xbe7f2c29	-0.2491919
172	0x3f97d1ef	1.1860942
173	0x3de53865	0.11192397
174	0x3f89a599	1.0753661
175	0xbe1fc73e	-0.15603349
176	0xbee86f0d	-0.45397225
177	0xbece24a6	-0.40262336
178	0xbf2a0eae	-0.6642865
179	0x3f67a99e	0.9049319
180	0xbe06e717	-0.13174091
181	0x3d6140f7	0.054993596
182	0xbd9eb0c4	-0.07748559
183	0x3df5739e	0.11984943
184	0xbf850390	-1.0391712
185	0x3f8a44c7	1.0802239
186	0x3fa6cfe8	1.3032198
187	0x3d632891	0.05545861
188	0xbf25d25d	-0.64774114
189	0xbed2029f	-0.41017625
190	0xbe5bf365	-0.21479566
191	0xbdb06ea9	-0.08614857
192	0x3f8bfa80	1.0935822
193	0xbf5e35d0	-0.8680086
194	0x3f13c87f	0.5772781
195	0x3d2a977b	0.04164837
196	0xbf9b4aa2	-1.2132151
197	0x3dbdb424	0.09262875
198	0x3ebb1abd	0.36543837
199	0xbf87b738	-1.0602789
200	0x3e5b02c9	0.21387781
201	0x3dd29bae	0.102836
202	0xbea86624	-0.32890427
203	0x3e2b5b63	0.1673408
204	0x3f47f0ce	0.78101814
205	0xbf9052c8	-1.1275263
206	0xbded7612	-0.11594786
207	0xbd90c0a8	-0.07067996
208	0x3f15bc7e	0.5849074
209	0xbee7bc6f	-0.4526095
210	0x3efc72a4	0.49306214
211	0x3f85ca58	1.0452375
212	0xbf178cab	-0.5919902
213	0xbeb1a1c3	-0.34693727
214	0x3e39f550	0.18159986
215	0xbf403e60	-0.75095177
216	0xbe528722	-0.20559362
217	0xbe98d3ca	-0.29849082
218	0xbee265c3	-0.44218263
219	0xbf00aa9b	-0.50260323
220	0x3c5f19c0	0.013616979
221	0x3e2b83d9	0.16749515
222	0x3f0be1dc	0.5464151
223	0x3ebd85f2	0.37016255
224	0x3f466cc6	0.77509725
225	0xbf4c7e41	-0.7988015
226	0xbe244054	-0.16040164
227	0x3e77c227	0.24195157
228	0x3e439157	0.19098412
229	0x3e9974de	0.29971975
230	0xbee34076	-0.44385117
231	0xbee6edd0	-0.45103312
232	0xbee7679b	-0.45196232
233	0xba26b25a	-0.0006358974
234	0xbda59144	-0.08084348
235	0x3f1d4f22	0.6144887
236	0x3f4f13a5	0.8088935
237	0xbf026a06	-0.5094303
238	0xbe701912	-0.23447064
239	0xbe6e6471	-0.23280503
240	0xbf25e7ab	-0.6480662
241	0xbf4da20f	-0.80325407
242	0xbf51357f	-0.81722254
243	0xbf4ca7ac	-0.79943347
244	0x3eda4090	0.42627382
245	0xbe3594c1	-0.17732526
246	0xbf08487c	-0.532356
247	0xbe71bec0	-0.23607922
248	0xbf09b53a	-0.53792155
249	0x3ea8a2fc	0.32936847
250	0xbec280f4	-0.37989008
251	0xbe9c4c2b	-0.30526862
252	0x3d84d338	0.06485599
253	0xbeb1ce4d	-0.34727708
254	0xbe0af6a0	-0.13570642
255	0xbb134915	-0.002247398

lstm.bias_ih_l1 f4 [512]
0	0xbf466b0a	-0.7750708
1	0xbf845cbd	-1.0340801
2	0xbf8c937d	-1.098251
3	0xbf9df453	-1.2340187
4	0xbfaeb623	-1.3649334
5	0xbea3dacc	-0.32002866
6	0xbf6377a5	-0.8885444
7	0xbfa8de54	-1.3192849
8	0xbf4bf77f	-0.79674524
9	0xbfa3422e	-1.2754571
10	0xbfa766e3	-1.3078274
11	0xbecc6f11	-0.39928487
12	0xbfde6506	-1.737458
13	0xbfa9b135	-1.3257204
14	0xbf7cfc6e	-0.9882268
15	0xbfa5deaf	-1.2958583
16	0xbf391097	-0.7229094
17	0xbfac57ac	-1.3464255
18	0xbf554e1c	-0.8332231
19	0xbfa226c0	-1.2668076
20	0xbf90b318	-1.1304655
21	0xbfafa88c	-1.3723311
22	0xbf6e10f8	-0.9299464
23	0xbf835bf3	-1.0262436
24	0xbf81580b	-1.0104994
25	0xbfb26f3e	-1.3940198
26	0xbeb68e09	-0.3565524
27	0xbf4b6908	-0.7945714
28	0xbf7b4502	-0.9815217
29	0xbf73bd68	-0.95210886
30	0xbf92b012	-1.1459982
31	0xbfb9ca88	-1.4514933
32	0xbf9b5821	-1.213627
33	0xbfa7e531	-1.3116819
34	0xbf78fa06	-0.97256505
35	0xbfa79fc5	-1.3095633
36	0xbf709473	-0.93976516
37	0xbf53b08e	-0.82691276
38	0xbfae04fe	-1.3595273
39	0xbf85a9a7	-1.0442399
40	0xbfa28576	-1.2696979
41	0xbf9926f1	-1.1965009
42	0xbf97cce8	-1.1859407
43	0xbfb8124f	-1.4380587
44	0xbf8c99d1	-1.0984441
45	0xbfa6d1d3	-1.3032783
46	0xbf8bc4f4	-1.091948
47	0xbf8bbc45	-1.091683
48	0xbfa6f8ac	-1.3044639
49	0xbf7f1cd0	-0.9965334
50	0xbebe2f54	-0.37145483
51	0xbfb85549	-1.4401027
52	0xbfab6c9f	-1.3392524
53	0xbf867498	-1.0504332
54	0xbfc4242a	-1.5323536
55	0xbf76d616	-0.9642042
56	0xbf7a39dd	-0.9774454
57	0xbebf8354	-0.37404883
58	0xbf69ccf8	-0.9132838
59	0xbf372879	-0.7154613
60	0xbf93eb1c	-1.1556125
61	0xbfc07406	-1.5035408
62	0xbf729815	-0.9476331
63	0xbfa39337	-1.2779301
64	0xbf8747d3	-1.0568794
65	0xbf8e4a8b	-1.1116499
66	0xbf6d45c3	-0.9268457
67	0xbf9a31e2	-1.2046473
68	0xbfb4cca6	-1.4124954
69	0xbf94ab99	-1.1614867
70	0xbf825759	-1.0182906
71	0xbf97b023	-1.1850628
72	0xbf9c5f85	-1.221665
73	0xbfa7d810	-1.3112812
74	0xbfc976db	-1.5739397
75	0xbf8eceb9	-1.1156837
76	0xbfb6d896	-1.4284847
77	0xbf7ea2e1	-0.99467283
78	0xbf0b37b9	-0.543819
79	0xbfb982af	-1.4493006
80	0xbf9e3955	-1.2361246
81	0xbfc49b4f	-1.5359896
82	0xbfc6a13a	-1.5517952
83	0xbf4afed1	-0.7929507
84	0xbf5f36aa	-0.87192786
85	0xbf2e35bd	-0.6805075
86	0xbfa1cb35	-1.2640139
87	0xbf80e420	-1.0069618
88	0xbf66cfa2	-0.9016057
89	0xbfcef59c	-1.6168704
90	0xbfa4c73e	-1.2873304
91	0xbfb67785	-1.4255224
92	0xbfb1dbc2	-1.389519
93	0xbfaa467f	-1.3302764
94	0xbf743f9a	-0.9540955
95	0xbfa6da8e	-1.3035448
96	0xbf627427	-0.88458484
97	0xbf87d293	-1.0611137
98	0xbfa0eb3d	-1.2571789
99	0xbf965246	-1.1743858
100	0xbf8942f6	-1.072356
101	0xbf9a9272	-1.2075942
102	0xbf688260	-0.90823936
103	0xbfb440b4	-1.4082246
104	0xbf25b155	-0.6472371
105	0xbf796bc1	-0.97430044
106	0xbf1692d8	-0.58817816
107	0xbfaabb6f	-1.333845
108	0xbf68283a	-0.9068638
109	0xbf307e60	-0.6894283
110	0xbf52be69	-0.8232179
111	0xbf51512d	-0.8176449
112	0xbf5ecea5	-0.87034065
113	0xbf0d3204	-0.5515444
114	0xbf62e5a7	-0.8863167
115	0xbf62597a	-0.8841778
116	0xbfae22e6	-1.36044
117	0xbf8ca49b	-1.0987734
118	0xbfbf1fc8	-1.4931574
119	0xbfa0c5f5	-1.2560412
120	0xbf32aae6	-0.6979202
121	0xbf61b38d	-0.881646
122	0xbf6d18a6	-0.92615736
123	0xbf86072b	-1.0470937
124	0xbfaefdcd	-1.3671204
125	0xbfa3b390	-1.2789173
126	0xbf8df27a	-1.1089623
127	0xbfc153cf	-1.5103701
128	0xbe2aa4cb	-0.16664426
129	0x3f9307b9	1.1486732
130	0xbf0a8ee9	-0.54124314
131	0x3f76f1af	0.9646253
132	0x3f0e68f7	0.55628914
133	0xbfa15fd1	-1.2607366
134	0x3f3b1547	0.7307934
135	0x3e7394ab	0.23787181
136	0x3f10b61f	0.56527895
137	0x3ec5cc38	0.3863237
138	0x3f53a117	0.8266768
139	0xbefc13fd	-0.49234
140	0x3f19a684	0.6001971
141	0x3ef7255c	0.4827069
142	0x3e83ef5f	0.25768563
143	0xbdc4a427	-0.09601622
144	0x3d49118d	0.049089003
145	0x3e8193ab	0.25307974
146	0x3d75c682	0.060003765
147	0x3f80f00e	1.0073259
148	0xbe9a40ac	-0.30127466
149	0x3f6c8d83	0.9240343
150	0x3f8dc621	1.1076089
151	0x3e8fbb53	0.28072605
152	0x3f455829	0.77087647
153	0x3f053002	0.5202638
154	0x3f23dc16	0.640077
155	0x3e90558c	0.28190267
156	0x3a4111d0	0.000736502
157	0x3f439fd8	0.7641578
158	0x3f97d42d	1.1861626
159	0x3ea0e9dd	0.31428424
160	0x3f242673	0.6412117
161	0xbe14f24f	-0.14545558
162	0x3e922d32	0.28550106
163	0x3ec21c6e	0.37912315
164	0x3e894c0b	0.2681583
165	0xbf20ab85	-0.6276172
166	0x3ecd0b74	0.400478
167	0x3e8191e9	0.25306633
168	0x3f8c4935	1.0959841
169	0x3f6a100d	0.9143074
170	0x3eda3182	0.42615896
171	0x3f6e5dfc	0.9311216
172	0xbd6360d9	-0.055512283
173	0x3f10a53f	0.56502146
174	0xbeec68ed	-0.46173802
175	0x3ee96110	0.45581865
176	0x3f2b2b5e	0.6686305
177	0x3ecf6e0c	0.40513647
178	0xbf6718ec	-0.902724
179	0xbe72f310	-0.23725533
180	0x3ed58572	0.41703373
181	0x3f3e983b	0.74451035
182	0xbe9e98dc	-0.30975997
183	0xbf1962a4	-0.5991614
184	0x3f54955b	0.830404
185	0xbee26d08	-0.4422381
186	0x3f3362b3	0.7007248
187	0xbec1548e	-0.37759823
188	0x3f6b9428	0.92022943
189	0x3f3c1535	0.7346986
190	0x3eb0a9e0	0.34504604
191	0x3f682206	0.90676916
192	0x3da95b09	0.08269317
193	0x3e53a2e2	0.20667604
194	0x3ee19755	0.4406077
195	0x3f0f2aec	0.5592487
196	0x3f097e2c	0.5370815
197	0x3f07de5d	0.53073674
198	0x3ddb8567	0.10718804
199	0x3edec60d	0.43510476
200	0x3ef70f4a	0.48253852
201	0xbf233b3f	-0.6376228
202	0x3ebdd46c	0.37076128
203	0x3f4ae827	0.79260486
204	0x3fa07bea	1.2537816
205	0x3dd50c7a	0.1040277
206	0xbf6e8215	-0.9316724
207	0x3f8371f4	1.0269151
208	0x3f8889d2	1.066706
209	0x3f9c7b7c	1.2225184
210	0x3dcee989	0.10103137
211	0xbe8d5a34	-0.27607882
212	0xbeb11855	-0.34588876
213	0xbf1a55cb	-0.6028716
214	0x3e874532	0.2641998
215	0xbec7dc7d	-0.39035407
216	0x3e77c724	0.2419706
217	0x3f18c582	0.59676373
218	0x3f1f46dc	0.622175
219	0x3f89aad5	1.0755259
220	0x3ec7e29e	0.39040083
221	0x3f6fc3f4	0.93658376
222	0x3ef4d4a9	0.47818497
223	0x3e953ad0	0.29146433
224	0x3ea3e1d3	0.32008228
225	0x3e552461	0.20814659
226	0x3f03e7c3	0.51525515
227	0x3f234997	0.63784164
228	0x3e9d4553	0.30716953
229	0x3f84201c	1.0322299
230	0x3ec5a750	0.38604212
231	0x3f079f4e	0.52977455
232	0x3e0385f6	0.12844071
233	0xbeabde5a	-0.33568078
234	0xbf2798a7	-0.65467304
235	0xbdc9ad01	-0.09847451
236	0xbf3657f9	-0.71227986
237	0xbf4edbba	-0.80804026
238	0x3f108f8e	0.5646905
239	0x3eedc5a5	0.46439853
240	0xbec5f36a	-0.38662273
241	0xbf329155	-0.6975301
242	0x3f32486f	0.69641775
243	0x3dc52e87	0.09628015
244	0x3f42da62	0.76114476
245	0x3e90995d	0.28242007
246	0x3e0b7aa4	0.13621002
247	0xbf263c1d	-0.64935476
248	0x3df56f9b	0.11984178
249	0x3d9de6ec	0.077100605
250	0xbefde580	-0.49589157
251	0x3e5fc44b	0.21852224
252	0xbeea72bd	-0.45790663
253	0x3f227e58	0.63474035
254	0x3ee1dd2a	0.44114047
255	0x3f6ec6c5	0.9327205
